{"format": "layers-model", "generatedBy": "keras v2.2.4", "convertedBy": "TensorFlow.js Converter v1.2.2.1", "modelTopology": {"keras_version": "2.2.4", "backend": "tensorflow", "model_config": {"class_name": "Model", "config": {"name": "model_1", "layers": [{"name": "input_1", "class_name": "InputLayer", "config": {"batch_input_shape": [null, 512, 1024, 2], "dtype": "float32", "sparse": false, "name": "input_1"}, "inbound_nodes": []}, {"name": "conv2d", "class_name": "Conv2D", "config": {"name": "conv2d", "trainable": true, "filters": 16, "kernel_size": [5, 5], "strides": [2, 2], "padding": "same", "data_format": "channels_last", "dilation_rate": [1, 1], "activation": "linear", "use_bias": true, "kernel_initializer": {"class_name": "VarianceScaling", "config": {"scale": 1.0, "mode": "fan_avg", "distribution": "uniform", "seed": null}}, "bias_initializer": {"class_name": "Zeros", "config": {}}, "kernel_regularizer": null, "bias_regularizer": null, "activity_regularizer": null, "kernel_constraint": null, "bias_constraint": null}, "inbound_nodes": [[["input_1", 0, 0, {}]]]}, {"name": "conv2d_7", "class_name": "Conv2D", "config": {"name": "conv2d_7", "trainable": true, "filters": 16, "kernel_size": [5, 5], "strides": [2, 2], "padding": "same", "data_format": "channels_last", "dilation_rate": [1, 1], "activation": "linear", "use_bias": true, "kernel_initializer": {"class_name": "VarianceScaling", "config": {"scale": 1.0, "mode": "fan_avg", "distribution": "uniform", "seed": null}}, "bias_initializer": {"class_name": "Zeros", "config": {}}, "kernel_regularizer": null, "bias_regularizer": null, "activity_regularizer": null, "kernel_constraint": null, "bias_constraint": null}, "inbound_nodes": [[["input_1", 0, 0, {}]]]}, {"name": "conv2d_14", "class_name": "Conv2D", "config": {"name": "conv2d_14", "trainable": true, "filters": 16, "kernel_size": [5, 5], "strides": [2, 2], "padding": "same", "data_format": "channels_last", "dilation_rate": [1, 1], "activation": "linear", "use_bias": true, "kernel_initializer": {"class_name": "VarianceScaling", "config": {"scale": 1.0, "mode": "fan_avg", "distribution": "uniform", "seed": null}}, "bias_initializer": {"class_name": "Zeros", "config": {}}, "kernel_regularizer": null, "bias_regularizer": null, "activity_regularizer": null, "kernel_constraint": null, "bias_constraint": null}, "inbound_nodes": [[["input_1", 0, 0, {}]]]}, {"name": "conv2d_21", "class_name": "Conv2D", "config": {"name": "conv2d_21", "trainable": true, "filters": 16, "kernel_size": [5, 5], "strides": [2, 2], "padding": "same", "data_format": "channels_last", "dilation_rate": [1, 1], "activation": "linear", "use_bias": true, "kernel_initializer": {"class_name": "VarianceScaling", "config": {"scale": 1.0, "mode": "fan_avg", "distribution": "uniform", "seed": null}}, "bias_initializer": {"class_name": "Zeros", "config": {}}, "kernel_regularizer": null, "bias_regularizer": null, "activity_regularizer": null, "kernel_constraint": null, "bias_constraint": null}, "inbound_nodes": [[["input_1", 0, 0, {}]]]}, {"name": "batch_normalization", "class_name": "BatchNormalization", "config": {"name": "batch_normalization", "trainable": true, "axis": -1, "momentum": 0.99, "epsilon": 0.001, "center": true, "scale": true, "beta_initializer": {"class_name": "Zeros", "config": {}}, "gamma_initializer": {"class_name": "Ones", "config": {}}, "moving_mean_initializer": {"class_name": "Zeros", "config": {}}, "moving_variance_initializer": {"class_name": "Ones", "config": {}}, "beta_regularizer": null, "gamma_regularizer": null, "beta_constraint": null, "gamma_constraint": null}, "inbound_nodes": [[["conv2d", 0, 0, {}]]]}, {"name": "batch_normalization_12", "class_name": "BatchNormalization", "config": {"name": "batch_normalization_12", "trainable": true, "axis": -1, "momentum": 0.99, "epsilon": 0.001, "center": true, "scale": true, "beta_initializer": {"class_name": "Zeros", "config": {}}, "gamma_initializer": {"class_name": "Ones", "config": {}}, "moving_mean_initializer": {"class_name": "Zeros", "config": {}}, "moving_variance_initializer": {"class_name": "Ones", "config": {}}, "beta_regularizer": null, "gamma_regularizer": null, "beta_constraint": null, "gamma_constraint": null}, "inbound_nodes": [[["conv2d_7", 0, 0, {}]]]}, {"name": "batch_normalization_24", "class_name": "BatchNormalization", "config": {"name": "batch_normalization_24", "trainable": true, "axis": -1, "momentum": 0.99, "epsilon": 0.001, "center": true, "scale": true, "beta_initializer": {"class_name": "Zeros", "config": {}}, "gamma_initializer": {"class_name": "Ones", "config": {}}, "moving_mean_initializer": {"class_name": "Zeros", "config": {}}, "moving_variance_initializer": {"class_name": "Ones", "config": {}}, "beta_regularizer": null, "gamma_regularizer": null, "beta_constraint": null, "gamma_constraint": null}, "inbound_nodes": [[["conv2d_14", 0, 0, {}]]]}, {"name": "batch_normalization_36", "class_name": "BatchNormalization", "config": {"name": "batch_normalization_36", "trainable": true, "axis": -1, "momentum": 0.99, "epsilon": 0.001, "center": true, "scale": true, "beta_initializer": {"class_name": "Zeros", "config": {}}, "gamma_initializer": {"class_name": "Ones", "config": {}}, "moving_mean_initializer": {"class_name": "Zeros", "config": {}}, "moving_variance_initializer": {"class_name": "Ones", "config": {}}, "beta_regularizer": null, "gamma_regularizer": null, "beta_constraint": null, "gamma_constraint": null}, "inbound_nodes": [[["conv2d_21", 0, 0, {}]]]}, {"name": "activation", "class_name": "ELU", "config": {"name": "activation", "trainable": true, "alpha": 1.0}, "inbound_nodes": [[["batch_normalization", 0, 0, {}]]]}, {"name": "activation_12", "class_name": "ELU", "config": {"name": "activation_12", "trainable": true, "alpha": 1.0}, "inbound_nodes": [[["batch_normalization_12", 0, 0, {}]]]}, {"name": "activation_24", "class_name": "ELU", "config": {"name": "activation_24", "trainable": true, "alpha": 1.0}, "inbound_nodes": [[["batch_normalization_24", 0, 0, {}]]]}, {"name": "activation_36", "class_name": "ELU", "config": {"name": "activation_36", "trainable": true, "alpha": 1.0}, "inbound_nodes": [[["batch_normalization_36", 0, 0, {}]]]}, {"name": "conv2d_1", "class_name": "Conv2D", "config": {"name": "conv2d_1", "trainable": true, "filters": 32, "kernel_size": [5, 5], "strides": [2, 2], "padding": "same", "data_format": "channels_last", "dilation_rate": [1, 1], "activation": "linear", "use_bias": true, "kernel_initializer": {"class_name": "VarianceScaling", "config": {"scale": 1.0, "mode": "fan_avg", "distribution": "uniform", "seed": null}}, "bias_initializer": {"class_name": "Zeros", "config": {}}, "kernel_regularizer": null, "bias_regularizer": null, "activity_regularizer": null, "kernel_constraint": null, "bias_constraint": null}, "inbound_nodes": [[["activation", 0, 0, {}]]]}, {"name": "conv2d_8", "class_name": "Conv2D", "config": {"name": "conv2d_8", "trainable": true, "filters": 32, "kernel_size": [5, 5], "strides": [2, 2], "padding": "same", "data_format": "channels_last", "dilation_rate": [1, 1], "activation": "linear", "use_bias": true, "kernel_initializer": {"class_name": "VarianceScaling", "config": {"scale": 1.0, "mode": "fan_avg", "distribution": "uniform", "seed": null}}, "bias_initializer": {"class_name": "Zeros", "config": {}}, "kernel_regularizer": null, "bias_regularizer": null, "activity_regularizer": null, "kernel_constraint": null, "bias_constraint": null}, "inbound_nodes": [[["activation_12", 0, 0, {}]]]}, {"name": "conv2d_15", "class_name": "Conv2D", "config": {"name": "conv2d_15", "trainable": true, "filters": 32, "kernel_size": [5, 5], "strides": [2, 2], "padding": "same", "data_format": "channels_last", "dilation_rate": [1, 1], "activation": "linear", "use_bias": true, "kernel_initializer": {"class_name": "VarianceScaling", "config": {"scale": 1.0, "mode": "fan_avg", "distribution": "uniform", "seed": null}}, "bias_initializer": {"class_name": "Zeros", "config": {}}, "kernel_regularizer": null, "bias_regularizer": null, "activity_regularizer": null, "kernel_constraint": null, "bias_constraint": null}, "inbound_nodes": [[["activation_24", 0, 0, {}]]]}, {"name": "conv2d_22", "class_name": "Conv2D", "config": {"name": "conv2d_22", "trainable": true, "filters": 32, "kernel_size": [5, 5], "strides": [2, 2], "padding": "same", "data_format": "channels_last", "dilation_rate": [1, 1], "activation": "linear", "use_bias": true, "kernel_initializer": {"class_name": "VarianceScaling", "config": {"scale": 1.0, "mode": "fan_avg", "distribution": "uniform", "seed": null}}, "bias_initializer": {"class_name": "Zeros", "config": {}}, "kernel_regularizer": null, "bias_regularizer": null, "activity_regularizer": null, "kernel_constraint": null, "bias_constraint": null}, "inbound_nodes": [[["activation_36", 0, 0, {}]]]}, {"name": "batch_normalization_1", "class_name": "BatchNormalization", "config": {"name": "batch_normalization_1", "trainable": true, "axis": -1, "momentum": 0.99, "epsilon": 0.001, "center": true, "scale": true, "beta_initializer": {"class_name": "Zeros", "config": {}}, "gamma_initializer": {"class_name": "Ones", "config": {}}, "moving_mean_initializer": {"class_name": "Zeros", "config": {}}, "moving_variance_initializer": {"class_name": "Ones", "config": {}}, "beta_regularizer": null, "gamma_regularizer": null, "beta_constraint": null, "gamma_constraint": null}, "inbound_nodes": [[["conv2d_1", 0, 0, {}]]]}, {"name": "batch_normalization_13", "class_name": "BatchNormalization", "config": {"name": "batch_normalization_13", "trainable": true, "axis": -1, "momentum": 0.99, "epsilon": 0.001, "center": true, "scale": true, "beta_initializer": {"class_name": "Zeros", "config": {}}, "gamma_initializer": {"class_name": "Ones", "config": {}}, "moving_mean_initializer": {"class_name": "Zeros", "config": {}}, "moving_variance_initializer": {"class_name": "Ones", "config": {}}, "beta_regularizer": null, "gamma_regularizer": null, "beta_constraint": null, "gamma_constraint": null}, "inbound_nodes": [[["conv2d_8", 0, 0, {}]]]}, {"name": "batch_normalization_25", "class_name": "BatchNormalization", "config": {"name": "batch_normalization_25", "trainable": true, "axis": -1, "momentum": 0.99, "epsilon": 0.001, "center": true, "scale": true, "beta_initializer": {"class_name": "Zeros", "config": {}}, "gamma_initializer": {"class_name": "Ones", "config": {}}, "moving_mean_initializer": {"class_name": "Zeros", "config": {}}, "moving_variance_initializer": {"class_name": "Ones", "config": {}}, "beta_regularizer": null, "gamma_regularizer": null, "beta_constraint": null, "gamma_constraint": null}, "inbound_nodes": [[["conv2d_15", 0, 0, {}]]]}, {"name": "batch_normalization_37", "class_name": "BatchNormalization", "config": {"name": "batch_normalization_37", "trainable": true, "axis": -1, "momentum": 0.99, "epsilon": 0.001, "center": true, "scale": true, "beta_initializer": {"class_name": "Zeros", "config": {}}, "gamma_initializer": {"class_name": "Ones", "config": {}}, "moving_mean_initializer": {"class_name": "Zeros", "config": {}}, "moving_variance_initializer": {"class_name": "Ones", "config": {}}, "beta_regularizer": null, "gamma_regularizer": null, "beta_constraint": null, "gamma_constraint": null}, "inbound_nodes": [[["conv2d_22", 0, 0, {}]]]}, {"name": "activation_1", "class_name": "ELU", "config": {"name": "activation_1", "trainable": true, "alpha": 1.0}, "inbound_nodes": [[["batch_normalization_1", 0, 0, {}]]]}, {"name": "activation_13", "class_name": "ELU", "config": {"name": "activation_13", "trainable": true, "alpha": 1.0}, "inbound_nodes": [[["batch_normalization_13", 0, 0, {}]]]}, {"name": "activation_25", "class_name": "ELU", "config": {"name": "activation_25", "trainable": true, "alpha": 1.0}, "inbound_nodes": [[["batch_normalization_25", 0, 0, {}]]]}, {"name": "activation_37", "class_name": "ELU", "config": {"name": "activation_37", "trainable": true, "alpha": 1.0}, "inbound_nodes": [[["batch_normalization_37", 0, 0, {}]]]}, {"name": "conv2d_2", "class_name": "Conv2D", "config": {"name": "conv2d_2", "trainable": true, "filters": 64, "kernel_size": [5, 5], "strides": [2, 2], "padding": "same", "data_format": "channels_last", "dilation_rate": [1, 1], "activation": "linear", "use_bias": true, "kernel_initializer": {"class_name": "VarianceScaling", "config": {"scale": 1.0, "mode": "fan_avg", "distribution": "uniform", "seed": null}}, "bias_initializer": {"class_name": "Zeros", "config": {}}, "kernel_regularizer": null, "bias_regularizer": null, "activity_regularizer": null, "kernel_constraint": null, "bias_constraint": null}, "inbound_nodes": [[["activation_1", 0, 0, {}]]]}, {"name": "conv2d_9", "class_name": "Conv2D", "config": {"name": "conv2d_9", "trainable": true, "filters": 64, "kernel_size": [5, 5], "strides": [2, 2], "padding": "same", "data_format": "channels_last", "dilation_rate": [1, 1], "activation": "linear", "use_bias": true, "kernel_initializer": {"class_name": "VarianceScaling", "config": {"scale": 1.0, "mode": "fan_avg", "distribution": "uniform", "seed": null}}, "bias_initializer": {"class_name": "Zeros", "config": {}}, "kernel_regularizer": null, "bias_regularizer": null, "activity_regularizer": null, "kernel_constraint": null, "bias_constraint": null}, "inbound_nodes": [[["activation_13", 0, 0, {}]]]}, {"name": "conv2d_16", "class_name": "Conv2D", "config": {"name": "conv2d_16", "trainable": true, "filters": 64, "kernel_size": [5, 5], "strides": [2, 2], "padding": "same", "data_format": "channels_last", "dilation_rate": [1, 1], "activation": "linear", "use_bias": true, "kernel_initializer": {"class_name": "VarianceScaling", "config": {"scale": 1.0, "mode": "fan_avg", "distribution": "uniform", "seed": null}}, "bias_initializer": {"class_name": "Zeros", "config": {}}, "kernel_regularizer": null, "bias_regularizer": null, "activity_regularizer": null, "kernel_constraint": null, "bias_constraint": null}, "inbound_nodes": [[["activation_25", 0, 0, {}]]]}, {"name": "conv2d_23", "class_name": "Conv2D", "config": {"name": "conv2d_23", "trainable": true, "filters": 64, "kernel_size": [5, 5], "strides": [2, 2], "padding": "same", "data_format": "channels_last", "dilation_rate": [1, 1], "activation": "linear", "use_bias": true, "kernel_initializer": {"class_name": "VarianceScaling", "config": {"scale": 1.0, "mode": "fan_avg", "distribution": "uniform", "seed": null}}, "bias_initializer": {"class_name": "Zeros", "config": {}}, "kernel_regularizer": null, "bias_regularizer": null, "activity_regularizer": null, "kernel_constraint": null, "bias_constraint": null}, "inbound_nodes": [[["activation_37", 0, 0, {}]]]}, {"name": "batch_normalization_2", "class_name": "BatchNormalization", "config": {"name": "batch_normalization_2", "trainable": true, "axis": -1, "momentum": 0.99, "epsilon": 0.001, "center": true, "scale": true, "beta_initializer": {"class_name": "Zeros", "config": {}}, "gamma_initializer": {"class_name": "Ones", "config": {}}, "moving_mean_initializer": {"class_name": "Zeros", "config": {}}, "moving_variance_initializer": {"class_name": "Ones", "config": {}}, "beta_regularizer": null, "gamma_regularizer": null, "beta_constraint": null, "gamma_constraint": null}, "inbound_nodes": [[["conv2d_2", 0, 0, {}]]]}, {"name": "batch_normalization_14", "class_name": "BatchNormalization", "config": {"name": "batch_normalization_14", "trainable": true, "axis": -1, "momentum": 0.99, "epsilon": 0.001, "center": true, "scale": true, "beta_initializer": {"class_name": "Zeros", "config": {}}, "gamma_initializer": {"class_name": "Ones", "config": {}}, "moving_mean_initializer": {"class_name": "Zeros", "config": {}}, "moving_variance_initializer": {"class_name": "Ones", "config": {}}, "beta_regularizer": null, "gamma_regularizer": null, "beta_constraint": null, "gamma_constraint": null}, "inbound_nodes": [[["conv2d_9", 0, 0, {}]]]}, {"name": "batch_normalization_26", "class_name": "BatchNormalization", "config": {"name": "batch_normalization_26", "trainable": true, "axis": -1, "momentum": 0.99, "epsilon": 0.001, "center": true, "scale": true, "beta_initializer": {"class_name": "Zeros", "config": {}}, "gamma_initializer": {"class_name": "Ones", "config": {}}, "moving_mean_initializer": {"class_name": "Zeros", "config": {}}, "moving_variance_initializer": {"class_name": "Ones", "config": {}}, "beta_regularizer": null, "gamma_regularizer": null, "beta_constraint": null, "gamma_constraint": null}, "inbound_nodes": [[["conv2d_16", 0, 0, {}]]]}, {"name": "batch_normalization_38", "class_name": "BatchNormalization", "config": {"name": "batch_normalization_38", "trainable": true, "axis": -1, "momentum": 0.99, "epsilon": 0.001, "center": true, "scale": true, "beta_initializer": {"class_name": "Zeros", "config": {}}, "gamma_initializer": {"class_name": "Ones", "config": {}}, "moving_mean_initializer": {"class_name": "Zeros", "config": {}}, "moving_variance_initializer": {"class_name": "Ones", "config": {}}, "beta_regularizer": null, "gamma_regularizer": null, "beta_constraint": null, "gamma_constraint": null}, "inbound_nodes": [[["conv2d_23", 0, 0, {}]]]}, {"name": "activation_2", "class_name": "ELU", "config": {"name": "activation_2", "trainable": true, "alpha": 1.0}, "inbound_nodes": [[["batch_normalization_2", 0, 0, {}]]]}, {"name": "activation_14", "class_name": "ELU", "config": {"name": "activation_14", "trainable": true, "alpha": 1.0}, "inbound_nodes": [[["batch_normalization_14", 0, 0, {}]]]}, {"name": "activation_26", "class_name": "ELU", "config": {"name": "activation_26", "trainable": true, "alpha": 1.0}, "inbound_nodes": [[["batch_normalization_26", 0, 0, {}]]]}, {"name": "activation_38", "class_name": "ELU", "config": {"name": "activation_38", "trainable": true, "alpha": 1.0}, "inbound_nodes": [[["batch_normalization_38", 0, 0, {}]]]}, {"name": "conv2d_3", "class_name": "Conv2D", "config": {"name": "conv2d_3", "trainable": true, "filters": 128, "kernel_size": [5, 5], "strides": [2, 2], "padding": "same", "data_format": "channels_last", "dilation_rate": [1, 1], "activation": "linear", "use_bias": true, "kernel_initializer": {"class_name": "VarianceScaling", "config": {"scale": 1.0, "mode": "fan_avg", "distribution": "uniform", "seed": null}}, "bias_initializer": {"class_name": "Zeros", "config": {}}, "kernel_regularizer": null, "bias_regularizer": null, "activity_regularizer": null, "kernel_constraint": null, "bias_constraint": null}, "inbound_nodes": [[["activation_2", 0, 0, {}]]]}, {"name": "conv2d_10", "class_name": "Conv2D", "config": {"name": "conv2d_10", "trainable": true, "filters": 128, "kernel_size": [5, 5], "strides": [2, 2], "padding": "same", "data_format": "channels_last", "dilation_rate": [1, 1], "activation": "linear", "use_bias": true, "kernel_initializer": {"class_name": "VarianceScaling", "config": {"scale": 1.0, "mode": "fan_avg", "distribution": "uniform", "seed": null}}, "bias_initializer": {"class_name": "Zeros", "config": {}}, "kernel_regularizer": null, "bias_regularizer": null, "activity_regularizer": null, "kernel_constraint": null, "bias_constraint": null}, "inbound_nodes": [[["activation_14", 0, 0, {}]]]}, {"name": "conv2d_17", "class_name": "Conv2D", "config": {"name": "conv2d_17", "trainable": true, "filters": 128, "kernel_size": [5, 5], "strides": [2, 2], "padding": "same", "data_format": "channels_last", "dilation_rate": [1, 1], "activation": "linear", "use_bias": true, "kernel_initializer": {"class_name": "VarianceScaling", "config": {"scale": 1.0, "mode": "fan_avg", "distribution": "uniform", "seed": null}}, "bias_initializer": {"class_name": "Zeros", "config": {}}, "kernel_regularizer": null, "bias_regularizer": null, "activity_regularizer": null, "kernel_constraint": null, "bias_constraint": null}, "inbound_nodes": [[["activation_26", 0, 0, {}]]]}, {"name": "conv2d_24", "class_name": "Conv2D", "config": {"name": "conv2d_24", "trainable": true, "filters": 128, "kernel_size": [5, 5], "strides": [2, 2], "padding": "same", "data_format": "channels_last", "dilation_rate": [1, 1], "activation": "linear", "use_bias": true, "kernel_initializer": {"class_name": "VarianceScaling", "config": {"scale": 1.0, "mode": "fan_avg", "distribution": "uniform", "seed": null}}, "bias_initializer": {"class_name": "Zeros", "config": {}}, "kernel_regularizer": null, "bias_regularizer": null, "activity_regularizer": null, "kernel_constraint": null, "bias_constraint": null}, "inbound_nodes": [[["activation_38", 0, 0, {}]]]}, {"name": "batch_normalization_3", "class_name": "BatchNormalization", "config": {"name": "batch_normalization_3", "trainable": true, "axis": -1, "momentum": 0.99, "epsilon": 0.001, "center": true, "scale": true, "beta_initializer": {"class_name": "Zeros", "config": {}}, "gamma_initializer": {"class_name": "Ones", "config": {}}, "moving_mean_initializer": {"class_name": "Zeros", "config": {}}, "moving_variance_initializer": {"class_name": "Ones", "config": {}}, "beta_regularizer": null, "gamma_regularizer": null, "beta_constraint": null, "gamma_constraint": null}, "inbound_nodes": [[["conv2d_3", 0, 0, {}]]]}, {"name": "batch_normalization_15", "class_name": "BatchNormalization", "config": {"name": "batch_normalization_15", "trainable": true, "axis": -1, "momentum": 0.99, "epsilon": 0.001, "center": true, "scale": true, "beta_initializer": {"class_name": "Zeros", "config": {}}, "gamma_initializer": {"class_name": "Ones", "config": {}}, "moving_mean_initializer": {"class_name": "Zeros", "config": {}}, "moving_variance_initializer": {"class_name": "Ones", "config": {}}, "beta_regularizer": null, "gamma_regularizer": null, "beta_constraint": null, "gamma_constraint": null}, "inbound_nodes": [[["conv2d_10", 0, 0, {}]]]}, {"name": "batch_normalization_27", "class_name": "BatchNormalization", "config": {"name": "batch_normalization_27", "trainable": true, "axis": -1, "momentum": 0.99, "epsilon": 0.001, "center": true, "scale": true, "beta_initializer": {"class_name": "Zeros", "config": {}}, "gamma_initializer": {"class_name": "Ones", "config": {}}, "moving_mean_initializer": {"class_name": "Zeros", "config": {}}, "moving_variance_initializer": {"class_name": "Ones", "config": {}}, "beta_regularizer": null, "gamma_regularizer": null, "beta_constraint": null, "gamma_constraint": null}, "inbound_nodes": [[["conv2d_17", 0, 0, {}]]]}, {"name": "batch_normalization_39", "class_name": "BatchNormalization", "config": {"name": "batch_normalization_39", "trainable": true, "axis": -1, "momentum": 0.99, "epsilon": 0.001, "center": true, "scale": true, "beta_initializer": {"class_name": "Zeros", "config": {}}, "gamma_initializer": {"class_name": "Ones", "config": {}}, "moving_mean_initializer": {"class_name": "Zeros", "config": {}}, "moving_variance_initializer": {"class_name": "Ones", "config": {}}, "beta_regularizer": null, "gamma_regularizer": null, "beta_constraint": null, "gamma_constraint": null}, "inbound_nodes": [[["conv2d_24", 0, 0, {}]]]}, {"name": "activation_3", "class_name": "ELU", "config": {"name": "activation_3", "trainable": true, "alpha": 1.0}, "inbound_nodes": [[["batch_normalization_3", 0, 0, {}]]]}, {"name": "activation_15", "class_name": "ELU", "config": {"name": "activation_15", "trainable": true, "alpha": 1.0}, "inbound_nodes": [[["batch_normalization_15", 0, 0, {}]]]}, {"name": "activation_27", "class_name": "ELU", "config": {"name": "activation_27", "trainable": true, "alpha": 1.0}, "inbound_nodes": [[["batch_normalization_27", 0, 0, {}]]]}, {"name": "activation_39", "class_name": "ELU", "config": {"name": "activation_39", "trainable": true, "alpha": 1.0}, "inbound_nodes": [[["batch_normalization_39", 0, 0, {}]]]}, {"name": "conv2d_4", "class_name": "Conv2D", "config": {"name": "conv2d_4", "trainable": true, "filters": 256, "kernel_size": [5, 5], "strides": [2, 2], "padding": "same", "data_format": "channels_last", "dilation_rate": [1, 1], "activation": "linear", "use_bias": true, "kernel_initializer": {"class_name": "VarianceScaling", "config": {"scale": 1.0, "mode": "fan_avg", "distribution": "uniform", "seed": null}}, "bias_initializer": {"class_name": "Zeros", "config": {}}, "kernel_regularizer": null, "bias_regularizer": null, "activity_regularizer": null, "kernel_constraint": null, "bias_constraint": null}, "inbound_nodes": [[["activation_3", 0, 0, {}]]]}, {"name": "conv2d_11", "class_name": "Conv2D", "config": {"name": "conv2d_11", "trainable": true, "filters": 256, "kernel_size": [5, 5], "strides": [2, 2], "padding": "same", "data_format": "channels_last", "dilation_rate": [1, 1], "activation": "linear", "use_bias": true, "kernel_initializer": {"class_name": "VarianceScaling", "config": {"scale": 1.0, "mode": "fan_avg", "distribution": "uniform", "seed": null}}, "bias_initializer": {"class_name": "Zeros", "config": {}}, "kernel_regularizer": null, "bias_regularizer": null, "activity_regularizer": null, "kernel_constraint": null, "bias_constraint": null}, "inbound_nodes": [[["activation_15", 0, 0, {}]]]}, {"name": "conv2d_18", "class_name": "Conv2D", "config": {"name": "conv2d_18", "trainable": true, "filters": 256, "kernel_size": [5, 5], "strides": [2, 2], "padding": "same", "data_format": "channels_last", "dilation_rate": [1, 1], "activation": "linear", "use_bias": true, "kernel_initializer": {"class_name": "VarianceScaling", "config": {"scale": 1.0, "mode": "fan_avg", "distribution": "uniform", "seed": null}}, "bias_initializer": {"class_name": "Zeros", "config": {}}, "kernel_regularizer": null, "bias_regularizer": null, "activity_regularizer": null, "kernel_constraint": null, "bias_constraint": null}, "inbound_nodes": [[["activation_27", 0, 0, {}]]]}, {"name": "conv2d_25", "class_name": "Conv2D", "config": {"name": "conv2d_25", "trainable": true, "filters": 256, "kernel_size": [5, 5], "strides": [2, 2], "padding": "same", "data_format": "channels_last", "dilation_rate": [1, 1], "activation": "linear", "use_bias": true, "kernel_initializer": {"class_name": "VarianceScaling", "config": {"scale": 1.0, "mode": "fan_avg", "distribution": "uniform", "seed": null}}, "bias_initializer": {"class_name": "Zeros", "config": {}}, "kernel_regularizer": null, "bias_regularizer": null, "activity_regularizer": null, "kernel_constraint": null, "bias_constraint": null}, "inbound_nodes": [[["activation_39", 0, 0, {}]]]}, {"name": "batch_normalization_4", "class_name": "BatchNormalization", "config": {"name": "batch_normalization_4", "trainable": true, "axis": -1, "momentum": 0.99, "epsilon": 0.001, "center": true, "scale": true, "beta_initializer": {"class_name": "Zeros", "config": {}}, "gamma_initializer": {"class_name": "Ones", "config": {}}, "moving_mean_initializer": {"class_name": "Zeros", "config": {}}, "moving_variance_initializer": {"class_name": "Ones", "config": {}}, "beta_regularizer": null, "gamma_regularizer": null, "beta_constraint": null, "gamma_constraint": null}, "inbound_nodes": [[["conv2d_4", 0, 0, {}]]]}, {"name": "batch_normalization_16", "class_name": "BatchNormalization", "config": {"name": "batch_normalization_16", "trainable": true, "axis": -1, "momentum": 0.99, "epsilon": 0.001, "center": true, "scale": true, "beta_initializer": {"class_name": "Zeros", "config": {}}, "gamma_initializer": {"class_name": "Ones", "config": {}}, "moving_mean_initializer": {"class_name": "Zeros", "config": {}}, "moving_variance_initializer": {"class_name": "Ones", "config": {}}, "beta_regularizer": null, "gamma_regularizer": null, "beta_constraint": null, "gamma_constraint": null}, "inbound_nodes": [[["conv2d_11", 0, 0, {}]]]}, {"name": "batch_normalization_28", "class_name": "BatchNormalization", "config": {"name": "batch_normalization_28", "trainable": true, "axis": -1, "momentum": 0.99, "epsilon": 0.001, "center": true, "scale": true, "beta_initializer": {"class_name": "Zeros", "config": {}}, "gamma_initializer": {"class_name": "Ones", "config": {}}, "moving_mean_initializer": {"class_name": "Zeros", "config": {}}, "moving_variance_initializer": {"class_name": "Ones", "config": {}}, "beta_regularizer": null, "gamma_regularizer": null, "beta_constraint": null, "gamma_constraint": null}, "inbound_nodes": [[["conv2d_18", 0, 0, {}]]]}, {"name": "batch_normalization_40", "class_name": "BatchNormalization", "config": {"name": "batch_normalization_40", "trainable": true, "axis": -1, "momentum": 0.99, "epsilon": 0.001, "center": true, "scale": true, "beta_initializer": {"class_name": "Zeros", "config": {}}, "gamma_initializer": {"class_name": "Ones", "config": {}}, "moving_mean_initializer": {"class_name": "Zeros", "config": {}}, "moving_variance_initializer": {"class_name": "Ones", "config": {}}, "beta_regularizer": null, "gamma_regularizer": null, "beta_constraint": null, "gamma_constraint": null}, "inbound_nodes": [[["conv2d_25", 0, 0, {}]]]}, {"name": "activation_4", "class_name": "ELU", "config": {"name": "activation_4", "trainable": true, "alpha": 1.0}, "inbound_nodes": [[["batch_normalization_4", 0, 0, {}]]]}, {"name": "activation_16", "class_name": "ELU", "config": {"name": "activation_16", "trainable": true, "alpha": 1.0}, "inbound_nodes": [[["batch_normalization_16", 0, 0, {}]]]}, {"name": "activation_28", "class_name": "ELU", "config": {"name": "activation_28", "trainable": true, "alpha": 1.0}, "inbound_nodes": [[["batch_normalization_28", 0, 0, {}]]]}, {"name": "activation_40", "class_name": "ELU", "config": {"name": "activation_40", "trainable": true, "alpha": 1.0}, "inbound_nodes": [[["batch_normalization_40", 0, 0, {}]]]}, {"name": "conv2d_5", "class_name": "Conv2D", "config": {"name": "conv2d_5", "trainable": true, "filters": 512, "kernel_size": [5, 5], "strides": [2, 2], "padding": "same", "data_format": "channels_last", "dilation_rate": [1, 1], "activation": "linear", "use_bias": true, "kernel_initializer": {"class_name": "VarianceScaling", "config": {"scale": 1.0, "mode": "fan_avg", "distribution": "uniform", "seed": null}}, "bias_initializer": {"class_name": "Zeros", "config": {}}, "kernel_regularizer": null, "bias_regularizer": null, "activity_regularizer": null, "kernel_constraint": null, "bias_constraint": null}, "inbound_nodes": [[["activation_4", 0, 0, {}]]]}, {"name": "conv2d_12", "class_name": "Conv2D", "config": {"name": "conv2d_12", "trainable": true, "filters": 512, "kernel_size": [5, 5], "strides": [2, 2], "padding": "same", "data_format": "channels_last", "dilation_rate": [1, 1], "activation": "linear", "use_bias": true, "kernel_initializer": {"class_name": "VarianceScaling", "config": {"scale": 1.0, "mode": "fan_avg", "distribution": "uniform", "seed": null}}, "bias_initializer": {"class_name": "Zeros", "config": {}}, "kernel_regularizer": null, "bias_regularizer": null, "activity_regularizer": null, "kernel_constraint": null, "bias_constraint": null}, "inbound_nodes": [[["activation_16", 0, 0, {}]]]}, {"name": "conv2d_19", "class_name": "Conv2D", "config": {"name": "conv2d_19", "trainable": true, "filters": 512, "kernel_size": [5, 5], "strides": [2, 2], "padding": "same", "data_format": "channels_last", "dilation_rate": [1, 1], "activation": "linear", "use_bias": true, "kernel_initializer": {"class_name": "VarianceScaling", "config": {"scale": 1.0, "mode": "fan_avg", "distribution": "uniform", "seed": null}}, "bias_initializer": {"class_name": "Zeros", "config": {}}, "kernel_regularizer": null, "bias_regularizer": null, "activity_regularizer": null, "kernel_constraint": null, "bias_constraint": null}, "inbound_nodes": [[["activation_28", 0, 0, {}]]]}, {"name": "conv2d_26", "class_name": "Conv2D", "config": {"name": "conv2d_26", "trainable": true, "filters": 512, "kernel_size": [5, 5], "strides": [2, 2], "padding": "same", "data_format": "channels_last", "dilation_rate": [1, 1], "activation": "linear", "use_bias": true, "kernel_initializer": {"class_name": "VarianceScaling", "config": {"scale": 1.0, "mode": "fan_avg", "distribution": "uniform", "seed": null}}, "bias_initializer": {"class_name": "Zeros", "config": {}}, "kernel_regularizer": null, "bias_regularizer": null, "activity_regularizer": null, "kernel_constraint": null, "bias_constraint": null}, "inbound_nodes": [[["activation_40", 0, 0, {}]]]}, {"name": "conv2d_transpose", "class_name": "Conv2DTranspose", "config": {"name": "conv2d_transpose", "trainable": true, "filters": 256, "kernel_size": [5, 5], "strides": [2, 2], "padding": "same", "data_format": "channels_last", "dilation_rate": [1, 1], "activation": "linear", "use_bias": true, "kernel_initializer": {"class_name": "VarianceScaling", "config": {"scale": 1.0, "mode": "fan_avg", "distribution": "uniform", "seed": null}}, "bias_initializer": {"class_name": "Zeros", "config": {}}, "kernel_regularizer": null, "bias_regularizer": null, "activity_regularizer": null, "kernel_constraint": null, "bias_constraint": null, "output_padding": null}, "inbound_nodes": [[["conv2d_5", 0, 0, {}]]]}, {"name": "conv2d_transpose_6", "class_name": "Conv2DTranspose", "config": {"name": "conv2d_transpose_6", "trainable": true, "filters": 256, "kernel_size": [5, 5], "strides": [2, 2], "padding": "same", "data_format": "channels_last", "dilation_rate": [1, 1], "activation": "linear", "use_bias": true, "kernel_initializer": {"class_name": "VarianceScaling", "config": {"scale": 1.0, "mode": "fan_avg", "distribution": "uniform", "seed": null}}, "bias_initializer": {"class_name": "Zeros", "config": {}}, "kernel_regularizer": null, "bias_regularizer": null, "activity_regularizer": null, "kernel_constraint": null, "bias_constraint": null, "output_padding": null}, "inbound_nodes": [[["conv2d_12", 0, 0, {}]]]}, {"name": "conv2d_transpose_12", "class_name": "Conv2DTranspose", "config": {"name": "conv2d_transpose_12", "trainable": true, "filters": 256, "kernel_size": [5, 5], "strides": [2, 2], "padding": "same", "data_format": "channels_last", "dilation_rate": [1, 1], "activation": "linear", "use_bias": true, "kernel_initializer": {"class_name": "VarianceScaling", "config": {"scale": 1.0, "mode": "fan_avg", "distribution": "uniform", "seed": null}}, "bias_initializer": {"class_name": "Zeros", "config": {}}, "kernel_regularizer": null, "bias_regularizer": null, "activity_regularizer": null, "kernel_constraint": null, "bias_constraint": null, "output_padding": null}, "inbound_nodes": [[["conv2d_19", 0, 0, {}]]]}, {"name": "conv2d_transpose_18", "class_name": "Conv2DTranspose", "config": {"name": "conv2d_transpose_18", "trainable": true, "filters": 256, "kernel_size": [5, 5], "strides": [2, 2], "padding": "same", "data_format": "channels_last", "dilation_rate": [1, 1], "activation": "linear", "use_bias": true, "kernel_initializer": {"class_name": "VarianceScaling", "config": {"scale": 1.0, "mode": "fan_avg", "distribution": "uniform", "seed": null}}, "bias_initializer": {"class_name": "Zeros", "config": {}}, "kernel_regularizer": null, "bias_regularizer": null, "activity_regularizer": null, "kernel_constraint": null, "bias_constraint": null, "output_padding": null}, "inbound_nodes": [[["conv2d_26", 0, 0, {}]]]}, {"name": "activation_106", "class_name": "ELU", "config": {"name": "activation_106", "trainable": true, "alpha": 1.0}, "inbound_nodes": [[["conv2d_transpose", 0, 0, {}]]]}, {"name": "activation_118", "class_name": "ELU", "config": {"name": "activation_118", "trainable": true, "alpha": 1.0}, "inbound_nodes": [[["conv2d_transpose_6", 0, 0, {}]]]}, {"name": "activation_130", "class_name": "ELU", "config": {"name": "activation_130", "trainable": true, "alpha": 1.0}, "inbound_nodes": [[["conv2d_transpose_12", 0, 0, {}]]]}, {"name": "activation_142", "class_name": "ELU", "config": {"name": "activation_142", "trainable": true, "alpha": 1.0}, "inbound_nodes": [[["conv2d_transpose_18", 0, 0, {}]]]}, {"name": "batch_normalization_6", "class_name": "BatchNormalization", "config": {"name": "batch_normalization_6", "trainable": true, "axis": -1, "momentum": 0.99, "epsilon": 0.001, "center": true, "scale": true, "beta_initializer": {"class_name": "Zeros", "config": {}}, "gamma_initializer": {"class_name": "Ones", "config": {}}, "moving_mean_initializer": {"class_name": "Zeros", "config": {}}, "moving_variance_initializer": {"class_name": "Ones", "config": {}}, "beta_regularizer": null, "gamma_regularizer": null, "beta_constraint": null, "gamma_constraint": null}, "inbound_nodes": [[["activation_106", 0, 0, {}]]]}, {"name": "batch_normalization_18", "class_name": "BatchNormalization", "config": {"name": "batch_normalization_18", "trainable": true, "axis": -1, "momentum": 0.99, "epsilon": 0.001, "center": true, "scale": true, "beta_initializer": {"class_name": "Zeros", "config": {}}, "gamma_initializer": {"class_name": "Ones", "config": {}}, "moving_mean_initializer": {"class_name": "Zeros", "config": {}}, "moving_variance_initializer": {"class_name": "Ones", "config": {}}, "beta_regularizer": null, "gamma_regularizer": null, "beta_constraint": null, "gamma_constraint": null}, "inbound_nodes": [[["activation_118", 0, 0, {}]]]}, {"name": "batch_normalization_30", "class_name": "BatchNormalization", "config": {"name": "batch_normalization_30", "trainable": true, "axis": -1, "momentum": 0.99, "epsilon": 0.001, "center": true, "scale": true, "beta_initializer": {"class_name": "Zeros", "config": {}}, "gamma_initializer": {"class_name": "Ones", "config": {}}, "moving_mean_initializer": {"class_name": "Zeros", "config": {}}, "moving_variance_initializer": {"class_name": "Ones", "config": {}}, "beta_regularizer": null, "gamma_regularizer": null, "beta_constraint": null, "gamma_constraint": null}, "inbound_nodes": [[["activation_130", 0, 0, {}]]]}, {"name": "batch_normalization_42", "class_name": "BatchNormalization", "config": {"name": "batch_normalization_42", "trainable": true, "axis": -1, "momentum": 0.99, "epsilon": 0.001, "center": true, "scale": true, "beta_initializer": {"class_name": "Zeros", "config": {}}, "gamma_initializer": {"class_name": "Ones", "config": {}}, "moving_mean_initializer": {"class_name": "Zeros", "config": {}}, "moving_variance_initializer": {"class_name": "Ones", "config": {}}, "beta_regularizer": null, "gamma_regularizer": null, "beta_constraint": null, "gamma_constraint": null}, "inbound_nodes": [[["activation_142", 0, 0, {}]]]}, {"name": "concat_7", "class_name": "Concatenate", "config": {"name": "concat_7", "trainable": true, "axis": -1}, "inbound_nodes": [[["conv2d_4", 0, 0, {}], ["batch_normalization_6", 0, 0, {}]]]}, {"name": "concat_19", "class_name": "Concatenate", "config": {"name": "concat_19", "trainable": true, "axis": -1}, "inbound_nodes": [[["conv2d_11", 0, 0, {}], ["batch_normalization_18", 0, 0, {}]]]}, {"name": "concat_31", "class_name": "Concatenate", "config": {"name": "concat_31", "trainable": true, "axis": -1}, "inbound_nodes": [[["conv2d_18", 0, 0, {}], ["batch_normalization_30", 0, 0, {}]]]}, {"name": "concat_43", "class_name": "Concatenate", "config": {"name": "concat_43", "trainable": true, "axis": -1}, "inbound_nodes": [[["conv2d_25", 0, 0, {}], ["batch_normalization_42", 0, 0, {}]]]}, {"name": "conv2d_transpose_1", "class_name": "Conv2DTranspose", "config": {"name": "conv2d_transpose_1", "trainable": true, "filters": 128, "kernel_size": [5, 5], "strides": [2, 2], "padding": "same", "data_format": "channels_last", "dilation_rate": [1, 1], "activation": "linear", "use_bias": true, "kernel_initializer": {"class_name": "VarianceScaling", "config": {"scale": 1.0, "mode": "fan_avg", "distribution": "uniform", "seed": null}}, "bias_initializer": {"class_name": "Zeros", "config": {}}, "kernel_regularizer": null, "bias_regularizer": null, "activity_regularizer": null, "kernel_constraint": null, "bias_constraint": null, "output_padding": null}, "inbound_nodes": [[["concat_7", 0, 0, {}]]]}, {"name": "conv2d_transpose_7", "class_name": "Conv2DTranspose", "config": {"name": "conv2d_transpose_7", "trainable": true, "filters": 128, "kernel_size": [5, 5], "strides": [2, 2], "padding": "same", "data_format": "channels_last", "dilation_rate": [1, 1], "activation": "linear", "use_bias": true, "kernel_initializer": {"class_name": "VarianceScaling", "config": {"scale": 1.0, "mode": "fan_avg", "distribution": "uniform", "seed": null}}, "bias_initializer": {"class_name": "Zeros", "config": {}}, "kernel_regularizer": null, "bias_regularizer": null, "activity_regularizer": null, "kernel_constraint": null, "bias_constraint": null, "output_padding": null}, "inbound_nodes": [[["concat_19", 0, 0, {}]]]}, {"name": "conv2d_transpose_13", "class_name": "Conv2DTranspose", "config": {"name": "conv2d_transpose_13", "trainable": true, "filters": 128, "kernel_size": [5, 5], "strides": [2, 2], "padding": "same", "data_format": "channels_last", "dilation_rate": [1, 1], "activation": "linear", "use_bias": true, "kernel_initializer": {"class_name": "VarianceScaling", "config": {"scale": 1.0, "mode": "fan_avg", "distribution": "uniform", "seed": null}}, "bias_initializer": {"class_name": "Zeros", "config": {}}, "kernel_regularizer": null, "bias_regularizer": null, "activity_regularizer": null, "kernel_constraint": null, "bias_constraint": null, "output_padding": null}, "inbound_nodes": [[["concat_31", 0, 0, {}]]]}, {"name": "conv2d_transpose_19", "class_name": "Conv2DTranspose", "config": {"name": "conv2d_transpose_19", "trainable": true, "filters": 128, "kernel_size": [5, 5], "strides": [2, 2], "padding": "same", "data_format": "channels_last", "dilation_rate": [1, 1], "activation": "linear", "use_bias": true, "kernel_initializer": {"class_name": "VarianceScaling", "config": {"scale": 1.0, "mode": "fan_avg", "distribution": "uniform", "seed": null}}, "bias_initializer": {"class_name": "Zeros", "config": {}}, "kernel_regularizer": null, "bias_regularizer": null, "activity_regularizer": null, "kernel_constraint": null, "bias_constraint": null, "output_padding": null}, "inbound_nodes": [[["concat_43", 0, 0, {}]]]}, {"name": "activation_7", "class_name": "ELU", "config": {"name": "activation_7", "trainable": true, "alpha": 1.0}, "inbound_nodes": [[["conv2d_transpose_1", 0, 0, {}]]]}, {"name": "activation_19", "class_name": "ELU", "config": {"name": "activation_19", "trainable": true, "alpha": 1.0}, "inbound_nodes": [[["conv2d_transpose_7", 0, 0, {}]]]}, {"name": "activation_31", "class_name": "ELU", "config": {"name": "activation_31", "trainable": true, "alpha": 1.0}, "inbound_nodes": [[["conv2d_transpose_13", 0, 0, {}]]]}, {"name": "activation_43", "class_name": "ELU", "config": {"name": "activation_43", "trainable": true, "alpha": 1.0}, "inbound_nodes": [[["conv2d_transpose_19", 0, 0, {}]]]}, {"name": "batch_normalization_7", "class_name": "BatchNormalization", "config": {"name": "batch_normalization_7", "trainable": true, "axis": -1, "momentum": 0.99, "epsilon": 0.001, "center": true, "scale": true, "beta_initializer": {"class_name": "Zeros", "config": {}}, "gamma_initializer": {"class_name": "Ones", "config": {}}, "moving_mean_initializer": {"class_name": "Zeros", "config": {}}, "moving_variance_initializer": {"class_name": "Ones", "config": {}}, "beta_regularizer": null, "gamma_regularizer": null, "beta_constraint": null, "gamma_constraint": null}, "inbound_nodes": [[["activation_7", 0, 0, {}]]]}, {"name": "batch_normalization_19", "class_name": "BatchNormalization", "config": {"name": "batch_normalization_19", "trainable": true, "axis": -1, "momentum": 0.99, "epsilon": 0.001, "center": true, "scale": true, "beta_initializer": {"class_name": "Zeros", "config": {}}, "gamma_initializer": {"class_name": "Ones", "config": {}}, "moving_mean_initializer": {"class_name": "Zeros", "config": {}}, "moving_variance_initializer": {"class_name": "Ones", "config": {}}, "beta_regularizer": null, "gamma_regularizer": null, "beta_constraint": null, "gamma_constraint": null}, "inbound_nodes": [[["activation_19", 0, 0, {}]]]}, {"name": "batch_normalization_31", "class_name": "BatchNormalization", "config": {"name": "batch_normalization_31", "trainable": true, "axis": -1, "momentum": 0.99, "epsilon": 0.001, "center": true, "scale": true, "beta_initializer": {"class_name": "Zeros", "config": {}}, "gamma_initializer": {"class_name": "Ones", "config": {}}, "moving_mean_initializer": {"class_name": "Zeros", "config": {}}, "moving_variance_initializer": {"class_name": "Ones", "config": {}}, "beta_regularizer": null, "gamma_regularizer": null, "beta_constraint": null, "gamma_constraint": null}, "inbound_nodes": [[["activation_31", 0, 0, {}]]]}, {"name": "batch_normalization_43", "class_name": "BatchNormalization", "config": {"name": "batch_normalization_43", "trainable": true, "axis": -1, "momentum": 0.99, "epsilon": 0.001, "center": true, "scale": true, "beta_initializer": {"class_name": "Zeros", "config": {}}, "gamma_initializer": {"class_name": "Ones", "config": {}}, "moving_mean_initializer": {"class_name": "Zeros", "config": {}}, "moving_variance_initializer": {"class_name": "Ones", "config": {}}, "beta_regularizer": null, "gamma_regularizer": null, "beta_constraint": null, "gamma_constraint": null}, "inbound_nodes": [[["activation_43", 0, 0, {}]]]}, {"name": "concat_8", "class_name": "Concatenate", "config": {"name": "concat_8", "trainable": true, "axis": -1}, "inbound_nodes": [[["conv2d_3", 0, 0, {}], ["batch_normalization_7", 0, 0, {}]]]}, {"name": "concat_20", "class_name": "Concatenate", "config": {"name": "concat_20", "trainable": true, "axis": -1}, "inbound_nodes": [[["conv2d_10", 0, 0, {}], ["batch_normalization_19", 0, 0, {}]]]}, {"name": "concat_32", "class_name": "Concatenate", "config": {"name": "concat_32", "trainable": true, "axis": -1}, "inbound_nodes": [[["conv2d_17", 0, 0, {}], ["batch_normalization_31", 0, 0, {}]]]}, {"name": "concat_44", "class_name": "Concatenate", "config": {"name": "concat_44", "trainable": true, "axis": -1}, "inbound_nodes": [[["conv2d_24", 0, 0, {}], ["batch_normalization_43", 0, 0, {}]]]}, {"name": "conv2d_transpose_2", "class_name": "Conv2DTranspose", "config": {"name": "conv2d_transpose_2", "trainable": true, "filters": 64, "kernel_size": [5, 5], "strides": [2, 2], "padding": "same", "data_format": "channels_last", "dilation_rate": [1, 1], "activation": "linear", "use_bias": true, "kernel_initializer": {"class_name": "VarianceScaling", "config": {"scale": 1.0, "mode": "fan_avg", "distribution": "uniform", "seed": null}}, "bias_initializer": {"class_name": "Zeros", "config": {}}, "kernel_regularizer": null, "bias_regularizer": null, "activity_regularizer": null, "kernel_constraint": null, "bias_constraint": null, "output_padding": null}, "inbound_nodes": [[["concat_8", 0, 0, {}]]]}, {"name": "conv2d_transpose_8", "class_name": "Conv2DTranspose", "config": {"name": "conv2d_transpose_8", "trainable": true, "filters": 64, "kernel_size": [5, 5], "strides": [2, 2], "padding": "same", "data_format": "channels_last", "dilation_rate": [1, 1], "activation": "linear", "use_bias": true, "kernel_initializer": {"class_name": "VarianceScaling", "config": {"scale": 1.0, "mode": "fan_avg", "distribution": "uniform", "seed": null}}, "bias_initializer": {"class_name": "Zeros", "config": {}}, "kernel_regularizer": null, "bias_regularizer": null, "activity_regularizer": null, "kernel_constraint": null, "bias_constraint": null, "output_padding": null}, "inbound_nodes": [[["concat_20", 0, 0, {}]]]}, {"name": "conv2d_transpose_14", "class_name": "Conv2DTranspose", "config": {"name": "conv2d_transpose_14", "trainable": true, "filters": 64, "kernel_size": [5, 5], "strides": [2, 2], "padding": "same", "data_format": "channels_last", "dilation_rate": [1, 1], "activation": "linear", "use_bias": true, "kernel_initializer": {"class_name": "VarianceScaling", "config": {"scale": 1.0, "mode": "fan_avg", "distribution": "uniform", "seed": null}}, "bias_initializer": {"class_name": "Zeros", "config": {}}, "kernel_regularizer": null, "bias_regularizer": null, "activity_regularizer": null, "kernel_constraint": null, "bias_constraint": null, "output_padding": null}, "inbound_nodes": [[["concat_32", 0, 0, {}]]]}, {"name": "conv2d_transpose_20", "class_name": "Conv2DTranspose", "config": {"name": "conv2d_transpose_20", "trainable": true, "filters": 64, "kernel_size": [5, 5], "strides": [2, 2], "padding": "same", "data_format": "channels_last", "dilation_rate": [1, 1], "activation": "linear", "use_bias": true, "kernel_initializer": {"class_name": "VarianceScaling", "config": {"scale": 1.0, "mode": "fan_avg", "distribution": "uniform", "seed": null}}, "bias_initializer": {"class_name": "Zeros", "config": {}}, "kernel_regularizer": null, "bias_regularizer": null, "activity_regularizer": null, "kernel_constraint": null, "bias_constraint": null, "output_padding": null}, "inbound_nodes": [[["concat_44", 0, 0, {}]]]}, {"name": "activation_8", "class_name": "ELU", "config": {"name": "activation_8", "trainable": true, "alpha": 1.0}, "inbound_nodes": [[["conv2d_transpose_2", 0, 0, {}]]]}, {"name": "activation_20", "class_name": "ELU", "config": {"name": "activation_20", "trainable": true, "alpha": 1.0}, "inbound_nodes": [[["conv2d_transpose_8", 0, 0, {}]]]}, {"name": "activation_32", "class_name": "ELU", "config": {"name": "activation_32", "trainable": true, "alpha": 1.0}, "inbound_nodes": [[["conv2d_transpose_14", 0, 0, {}]]]}, {"name": "activation_44", "class_name": "ELU", "config": {"name": "activation_44", "trainable": true, "alpha": 1.0}, "inbound_nodes": [[["conv2d_transpose_20", 0, 0, {}]]]}, {"name": "batch_normalization_8", "class_name": "BatchNormalization", "config": {"name": "batch_normalization_8", "trainable": true, "axis": -1, "momentum": 0.99, "epsilon": 0.001, "center": true, "scale": true, "beta_initializer": {"class_name": "Zeros", "config": {}}, "gamma_initializer": {"class_name": "Ones", "config": {}}, "moving_mean_initializer": {"class_name": "Zeros", "config": {}}, "moving_variance_initializer": {"class_name": "Ones", "config": {}}, "beta_regularizer": null, "gamma_regularizer": null, "beta_constraint": null, "gamma_constraint": null}, "inbound_nodes": [[["activation_8", 0, 0, {}]]]}, {"name": "batch_normalization_20", "class_name": "BatchNormalization", "config": {"name": "batch_normalization_20", "trainable": true, "axis": -1, "momentum": 0.99, "epsilon": 0.001, "center": true, "scale": true, "beta_initializer": {"class_name": "Zeros", "config": {}}, "gamma_initializer": {"class_name": "Ones", "config": {}}, "moving_mean_initializer": {"class_name": "Zeros", "config": {}}, "moving_variance_initializer": {"class_name": "Ones", "config": {}}, "beta_regularizer": null, "gamma_regularizer": null, "beta_constraint": null, "gamma_constraint": null}, "inbound_nodes": [[["activation_20", 0, 0, {}]]]}, {"name": "batch_normalization_32", "class_name": "BatchNormalization", "config": {"name": "batch_normalization_32", "trainable": true, "axis": -1, "momentum": 0.99, "epsilon": 0.001, "center": true, "scale": true, "beta_initializer": {"class_name": "Zeros", "config": {}}, "gamma_initializer": {"class_name": "Ones", "config": {}}, "moving_mean_initializer": {"class_name": "Zeros", "config": {}}, "moving_variance_initializer": {"class_name": "Ones", "config": {}}, "beta_regularizer": null, "gamma_regularizer": null, "beta_constraint": null, "gamma_constraint": null}, "inbound_nodes": [[["activation_32", 0, 0, {}]]]}, {"name": "batch_normalization_44", "class_name": "BatchNormalization", "config": {"name": "batch_normalization_44", "trainable": true, "axis": -1, "momentum": 0.99, "epsilon": 0.001, "center": true, "scale": true, "beta_initializer": {"class_name": "Zeros", "config": {}}, "gamma_initializer": {"class_name": "Ones", "config": {}}, "moving_mean_initializer": {"class_name": "Zeros", "config": {}}, "moving_variance_initializer": {"class_name": "Ones", "config": {}}, "beta_regularizer": null, "gamma_regularizer": null, "beta_constraint": null, "gamma_constraint": null}, "inbound_nodes": [[["activation_44", 0, 0, {}]]]}, {"name": "concat_9", "class_name": "Concatenate", "config": {"name": "concat_9", "trainable": true, "axis": -1}, "inbound_nodes": [[["conv2d_2", 0, 0, {}], ["batch_normalization_8", 0, 0, {}]]]}, {"name": "concat_21", "class_name": "Concatenate", "config": {"name": "concat_21", "trainable": true, "axis": -1}, "inbound_nodes": [[["conv2d_9", 0, 0, {}], ["batch_normalization_20", 0, 0, {}]]]}, {"name": "concat_33", "class_name": "Concatenate", "config": {"name": "concat_33", "trainable": true, "axis": -1}, "inbound_nodes": [[["conv2d_16", 0, 0, {}], ["batch_normalization_32", 0, 0, {}]]]}, {"name": "concat_45", "class_name": "Concatenate", "config": {"name": "concat_45", "trainable": true, "axis": -1}, "inbound_nodes": [[["conv2d_23", 0, 0, {}], ["batch_normalization_44", 0, 0, {}]]]}, {"name": "conv2d_transpose_3", "class_name": "Conv2DTranspose", "config": {"name": "conv2d_transpose_3", "trainable": true, "filters": 32, "kernel_size": [5, 5], "strides": [2, 2], "padding": "same", "data_format": "channels_last", "dilation_rate": [1, 1], "activation": "linear", "use_bias": true, "kernel_initializer": {"class_name": "VarianceScaling", "config": {"scale": 1.0, "mode": "fan_avg", "distribution": "uniform", "seed": null}}, "bias_initializer": {"class_name": "Zeros", "config": {}}, "kernel_regularizer": null, "bias_regularizer": null, "activity_regularizer": null, "kernel_constraint": null, "bias_constraint": null, "output_padding": null}, "inbound_nodes": [[["concat_9", 0, 0, {}]]]}, {"name": "conv2d_transpose_9", "class_name": "Conv2DTranspose", "config": {"name": "conv2d_transpose_9", "trainable": true, "filters": 32, "kernel_size": [5, 5], "strides": [2, 2], "padding": "same", "data_format": "channels_last", "dilation_rate": [1, 1], "activation": "linear", "use_bias": true, "kernel_initializer": {"class_name": "VarianceScaling", "config": {"scale": 1.0, "mode": "fan_avg", "distribution": "uniform", "seed": null}}, "bias_initializer": {"class_name": "Zeros", "config": {}}, "kernel_regularizer": null, "bias_regularizer": null, "activity_regularizer": null, "kernel_constraint": null, "bias_constraint": null, "output_padding": null}, "inbound_nodes": [[["concat_21", 0, 0, {}]]]}, {"name": "conv2d_transpose_15", "class_name": "Conv2DTranspose", "config": {"name": "conv2d_transpose_15", "trainable": true, "filters": 32, "kernel_size": [5, 5], "strides": [2, 2], "padding": "same", "data_format": "channels_last", "dilation_rate": [1, 1], "activation": "linear", "use_bias": true, "kernel_initializer": {"class_name": "VarianceScaling", "config": {"scale": 1.0, "mode": "fan_avg", "distribution": "uniform", "seed": null}}, "bias_initializer": {"class_name": "Zeros", "config": {}}, "kernel_regularizer": null, "bias_regularizer": null, "activity_regularizer": null, "kernel_constraint": null, "bias_constraint": null, "output_padding": null}, "inbound_nodes": [[["concat_33", 0, 0, {}]]]}, {"name": "conv2d_transpose_21", "class_name": "Conv2DTranspose", "config": {"name": "conv2d_transpose_21", "trainable": true, "filters": 32, "kernel_size": [5, 5], "strides": [2, 2], "padding": "same", "data_format": "channels_last", "dilation_rate": [1, 1], "activation": "linear", "use_bias": true, "kernel_initializer": {"class_name": "VarianceScaling", "config": {"scale": 1.0, "mode": "fan_avg", "distribution": "uniform", "seed": null}}, "bias_initializer": {"class_name": "Zeros", "config": {}}, "kernel_regularizer": null, "bias_regularizer": null, "activity_regularizer": null, "kernel_constraint": null, "bias_constraint": null, "output_padding": null}, "inbound_nodes": [[["concat_45", 0, 0, {}]]]}, {"name": "activation_9", "class_name": "ELU", "config": {"name": "activation_9", "trainable": true, "alpha": 1.0}, "inbound_nodes": [[["conv2d_transpose_3", 0, 0, {}]]]}, {"name": "activation_21", "class_name": "ELU", "config": {"name": "activation_21", "trainable": true, "alpha": 1.0}, "inbound_nodes": [[["conv2d_transpose_9", 0, 0, {}]]]}, {"name": "activation_33", "class_name": "ELU", "config": {"name": "activation_33", "trainable": true, "alpha": 1.0}, "inbound_nodes": [[["conv2d_transpose_15", 0, 0, {}]]]}, {"name": "activation_45", "class_name": "ELU", "config": {"name": "activation_45", "trainable": true, "alpha": 1.0}, "inbound_nodes": [[["conv2d_transpose_21", 0, 0, {}]]]}, {"name": "batch_normalization_9", "class_name": "BatchNormalization", "config": {"name": "batch_normalization_9", "trainable": true, "axis": -1, "momentum": 0.99, "epsilon": 0.001, "center": true, "scale": true, "beta_initializer": {"class_name": "Zeros", "config": {}}, "gamma_initializer": {"class_name": "Ones", "config": {}}, "moving_mean_initializer": {"class_name": "Zeros", "config": {}}, "moving_variance_initializer": {"class_name": "Ones", "config": {}}, "beta_regularizer": null, "gamma_regularizer": null, "beta_constraint": null, "gamma_constraint": null}, "inbound_nodes": [[["activation_9", 0, 0, {}]]]}, {"name": "batch_normalization_21", "class_name": "BatchNormalization", "config": {"name": "batch_normalization_21", "trainable": true, "axis": -1, "momentum": 0.99, "epsilon": 0.001, "center": true, "scale": true, "beta_initializer": {"class_name": "Zeros", "config": {}}, "gamma_initializer": {"class_name": "Ones", "config": {}}, "moving_mean_initializer": {"class_name": "Zeros", "config": {}}, "moving_variance_initializer": {"class_name": "Ones", "config": {}}, "beta_regularizer": null, "gamma_regularizer": null, "beta_constraint": null, "gamma_constraint": null}, "inbound_nodes": [[["activation_21", 0, 0, {}]]]}, {"name": "batch_normalization_33", "class_name": "BatchNormalization", "config": {"name": "batch_normalization_33", "trainable": true, "axis": -1, "momentum": 0.99, "epsilon": 0.001, "center": true, "scale": true, "beta_initializer": {"class_name": "Zeros", "config": {}}, "gamma_initializer": {"class_name": "Ones", "config": {}}, "moving_mean_initializer": {"class_name": "Zeros", "config": {}}, "moving_variance_initializer": {"class_name": "Ones", "config": {}}, "beta_regularizer": null, "gamma_regularizer": null, "beta_constraint": null, "gamma_constraint": null}, "inbound_nodes": [[["activation_33", 0, 0, {}]]]}, {"name": "batch_normalization_45", "class_name": "BatchNormalization", "config": {"name": "batch_normalization_45", "trainable": true, "axis": -1, "momentum": 0.99, "epsilon": 0.001, "center": true, "scale": true, "beta_initializer": {"class_name": "Zeros", "config": {}}, "gamma_initializer": {"class_name": "Ones", "config": {}}, "moving_mean_initializer": {"class_name": "Zeros", "config": {}}, "moving_variance_initializer": {"class_name": "Ones", "config": {}}, "beta_regularizer": null, "gamma_regularizer": null, "beta_constraint": null, "gamma_constraint": null}, "inbound_nodes": [[["activation_45", 0, 0, {}]]]}, {"name": "concat_10", "class_name": "Concatenate", "config": {"name": "concat_10", "trainable": true, "axis": -1}, "inbound_nodes": [[["conv2d_1", 0, 0, {}], ["batch_normalization_9", 0, 0, {}]]]}, {"name": "concat_22", "class_name": "Concatenate", "config": {"name": "concat_22", "trainable": true, "axis": -1}, "inbound_nodes": [[["conv2d_8", 0, 0, {}], ["batch_normalization_21", 0, 0, {}]]]}, {"name": "concat_34", "class_name": "Concatenate", "config": {"name": "concat_34", "trainable": true, "axis": -1}, "inbound_nodes": [[["conv2d_15", 0, 0, {}], ["batch_normalization_33", 0, 0, {}]]]}, {"name": "concat_46", "class_name": "Concatenate", "config": {"name": "concat_46", "trainable": true, "axis": -1}, "inbound_nodes": [[["conv2d_22", 0, 0, {}], ["batch_normalization_45", 0, 0, {}]]]}, {"name": "conv2d_transpose_4", "class_name": "Conv2DTranspose", "config": {"name": "conv2d_transpose_4", "trainable": true, "filters": 16, "kernel_size": [5, 5], "strides": [2, 2], "padding": "same", "data_format": "channels_last", "dilation_rate": [1, 1], "activation": "linear", "use_bias": true, "kernel_initializer": {"class_name": "VarianceScaling", "config": {"scale": 1.0, "mode": "fan_avg", "distribution": "uniform", "seed": null}}, "bias_initializer": {"class_name": "Zeros", "config": {}}, "kernel_regularizer": null, "bias_regularizer": null, "activity_regularizer": null, "kernel_constraint": null, "bias_constraint": null, "output_padding": null}, "inbound_nodes": [[["concat_10", 0, 0, {}]]]}, {"name": "conv2d_transpose_10", "class_name": "Conv2DTranspose", "config": {"name": "conv2d_transpose_10", "trainable": true, "filters": 16, "kernel_size": [5, 5], "strides": [2, 2], "padding": "same", "data_format": "channels_last", "dilation_rate": [1, 1], "activation": "linear", "use_bias": true, "kernel_initializer": {"class_name": "VarianceScaling", "config": {"scale": 1.0, "mode": "fan_avg", "distribution": "uniform", "seed": null}}, "bias_initializer": {"class_name": "Zeros", "config": {}}, "kernel_regularizer": null, "bias_regularizer": null, "activity_regularizer": null, "kernel_constraint": null, "bias_constraint": null, "output_padding": null}, "inbound_nodes": [[["concat_22", 0, 0, {}]]]}, {"name": "conv2d_transpose_16", "class_name": "Conv2DTranspose", "config": {"name": "conv2d_transpose_16", "trainable": true, "filters": 16, "kernel_size": [5, 5], "strides": [2, 2], "padding": "same", "data_format": "channels_last", "dilation_rate": [1, 1], "activation": "linear", "use_bias": true, "kernel_initializer": {"class_name": "VarianceScaling", "config": {"scale": 1.0, "mode": "fan_avg", "distribution": "uniform", "seed": null}}, "bias_initializer": {"class_name": "Zeros", "config": {}}, "kernel_regularizer": null, "bias_regularizer": null, "activity_regularizer": null, "kernel_constraint": null, "bias_constraint": null, "output_padding": null}, "inbound_nodes": [[["concat_34", 0, 0, {}]]]}, {"name": "conv2d_transpose_22", "class_name": "Conv2DTranspose", "config": {"name": "conv2d_transpose_22", "trainable": true, "filters": 16, "kernel_size": [5, 5], "strides": [2, 2], "padding": "same", "data_format": "channels_last", "dilation_rate": [1, 1], "activation": "linear", "use_bias": true, "kernel_initializer": {"class_name": "VarianceScaling", "config": {"scale": 1.0, "mode": "fan_avg", "distribution": "uniform", "seed": null}}, "bias_initializer": {"class_name": "Zeros", "config": {}}, "kernel_regularizer": null, "bias_regularizer": null, "activity_regularizer": null, "kernel_constraint": null, "bias_constraint": null, "output_padding": null}, "inbound_nodes": [[["concat_46", 0, 0, {}]]]}, {"name": "activation_10", "class_name": "ELU", "config": {"name": "activation_10", "trainable": true, "alpha": 1.0}, "inbound_nodes": [[["conv2d_transpose_4", 0, 0, {}]]]}, {"name": "activation_22", "class_name": "ELU", "config": {"name": "activation_22", "trainable": true, "alpha": 1.0}, "inbound_nodes": [[["conv2d_transpose_10", 0, 0, {}]]]}, {"name": "activation_34", "class_name": "ELU", "config": {"name": "activation_34", "trainable": true, "alpha": 1.0}, "inbound_nodes": [[["conv2d_transpose_16", 0, 0, {}]]]}, {"name": "activation_46", "class_name": "ELU", "config": {"name": "activation_46", "trainable": true, "alpha": 1.0}, "inbound_nodes": [[["conv2d_transpose_22", 0, 0, {}]]]}, {"name": "batch_normalization_10", "class_name": "BatchNormalization", "config": {"name": "batch_normalization_10", "trainable": true, "axis": -1, "momentum": 0.99, "epsilon": 0.001, "center": true, "scale": true, "beta_initializer": {"class_name": "Zeros", "config": {}}, "gamma_initializer": {"class_name": "Ones", "config": {}}, "moving_mean_initializer": {"class_name": "Zeros", "config": {}}, "moving_variance_initializer": {"class_name": "Ones", "config": {}}, "beta_regularizer": null, "gamma_regularizer": null, "beta_constraint": null, "gamma_constraint": null}, "inbound_nodes": [[["activation_10", 0, 0, {}]]]}, {"name": "batch_normalization_22", "class_name": "BatchNormalization", "config": {"name": "batch_normalization_22", "trainable": true, "axis": -1, "momentum": 0.99, "epsilon": 0.001, "center": true, "scale": true, "beta_initializer": {"class_name": "Zeros", "config": {}}, "gamma_initializer": {"class_name": "Ones", "config": {}}, "moving_mean_initializer": {"class_name": "Zeros", "config": {}}, "moving_variance_initializer": {"class_name": "Ones", "config": {}}, "beta_regularizer": null, "gamma_regularizer": null, "beta_constraint": null, "gamma_constraint": null}, "inbound_nodes": [[["activation_22", 0, 0, {}]]]}, {"name": "batch_normalization_34", "class_name": "BatchNormalization", "config": {"name": "batch_normalization_34", "trainable": true, "axis": -1, "momentum": 0.99, "epsilon": 0.001, "center": true, "scale": true, "beta_initializer": {"class_name": "Zeros", "config": {}}, "gamma_initializer": {"class_name": "Ones", "config": {}}, "moving_mean_initializer": {"class_name": "Zeros", "config": {}}, "moving_variance_initializer": {"class_name": "Ones", "config": {}}, "beta_regularizer": null, "gamma_regularizer": null, "beta_constraint": null, "gamma_constraint": null}, "inbound_nodes": [[["activation_34", 0, 0, {}]]]}, {"name": "batch_normalization_46", "class_name": "BatchNormalization", "config": {"name": "batch_normalization_46", "trainable": true, "axis": -1, "momentum": 0.99, "epsilon": 0.001, "center": true, "scale": true, "beta_initializer": {"class_name": "Zeros", "config": {}}, "gamma_initializer": {"class_name": "Ones", "config": {}}, "moving_mean_initializer": {"class_name": "Zeros", "config": {}}, "moving_variance_initializer": {"class_name": "Ones", "config": {}}, "beta_regularizer": null, "gamma_regularizer": null, "beta_constraint": null, "gamma_constraint": null}, "inbound_nodes": [[["activation_46", 0, 0, {}]]]}, {"name": "concat_11", "class_name": "Concatenate", "config": {"name": "concat_11", "trainable": true, "axis": -1}, "inbound_nodes": [[["conv2d", 0, 0, {}], ["batch_normalization_10", 0, 0, {}]]]}, {"name": "concat_23", "class_name": "Concatenate", "config": {"name": "concat_23", "trainable": true, "axis": -1}, "inbound_nodes": [[["conv2d_7", 0, 0, {}], ["batch_normalization_22", 0, 0, {}]]]}, {"name": "concat_35", "class_name": "Concatenate", "config": {"name": "concat_35", "trainable": true, "axis": -1}, "inbound_nodes": [[["conv2d_14", 0, 0, {}], ["batch_normalization_34", 0, 0, {}]]]}, {"name": "concat_47", "class_name": "Concatenate", "config": {"name": "concat_47", "trainable": true, "axis": -1}, "inbound_nodes": [[["conv2d_21", 0, 0, {}], ["batch_normalization_46", 0, 0, {}]]]}, {"name": "conv2d_transpose_5", "class_name": "Conv2DTranspose", "config": {"name": "conv2d_transpose_5", "trainable": true, "filters": 1, "kernel_size": [5, 5], "strides": [2, 2], "padding": "same", "data_format": "channels_last", "dilation_rate": [1, 1], "activation": "linear", "use_bias": true, "kernel_initializer": {"class_name": "VarianceScaling", "config": {"scale": 1.0, "mode": "fan_avg", "distribution": "uniform", "seed": null}}, "bias_initializer": {"class_name": "Zeros", "config": {}}, "kernel_regularizer": null, "bias_regularizer": null, "activity_regularizer": null, "kernel_constraint": null, "bias_constraint": null, "output_padding": null}, "inbound_nodes": [[["concat_11", 0, 0, {}]]]}, {"name": "conv2d_transpose_11", "class_name": "Conv2DTranspose", "config": {"name": "conv2d_transpose_11", "trainable": true, "filters": 1, "kernel_size": [5, 5], "strides": [2, 2], "padding": "same", "data_format": "channels_last", "dilation_rate": [1, 1], "activation": "linear", "use_bias": true, "kernel_initializer": {"class_name": "VarianceScaling", "config": {"scale": 1.0, "mode": "fan_avg", "distribution": "uniform", "seed": null}}, "bias_initializer": {"class_name": "Zeros", "config": {}}, "kernel_regularizer": null, "bias_regularizer": null, "activity_regularizer": null, "kernel_constraint": null, "bias_constraint": null, "output_padding": null}, "inbound_nodes": [[["concat_23", 0, 0, {}]]]}, {"name": "conv2d_transpose_17", "class_name": "Conv2DTranspose", "config": {"name": "conv2d_transpose_17", "trainable": true, "filters": 1, "kernel_size": [5, 5], "strides": [2, 2], "padding": "same", "data_format": "channels_last", "dilation_rate": [1, 1], "activation": "linear", "use_bias": true, "kernel_initializer": {"class_name": "VarianceScaling", "config": {"scale": 1.0, "mode": "fan_avg", "distribution": "uniform", "seed": null}}, "bias_initializer": {"class_name": "Zeros", "config": {}}, "kernel_regularizer": null, "bias_regularizer": null, "activity_regularizer": null, "kernel_constraint": null, "bias_constraint": null, "output_padding": null}, "inbound_nodes": [[["concat_35", 0, 0, {}]]]}, {"name": "conv2d_transpose_23", "class_name": "Conv2DTranspose", "config": {"name": "conv2d_transpose_23", "trainable": true, "filters": 1, "kernel_size": [5, 5], "strides": [2, 2], "padding": "same", "data_format": "channels_last", "dilation_rate": [1, 1], "activation": "linear", "use_bias": true, "kernel_initializer": {"class_name": "VarianceScaling", "config": {"scale": 1.0, "mode": "fan_avg", "distribution": "uniform", "seed": null}}, "bias_initializer": {"class_name": "Zeros", "config": {}}, "kernel_regularizer": null, "bias_regularizer": null, "activity_regularizer": null, "kernel_constraint": null, "bias_constraint": null, "output_padding": null}, "inbound_nodes": [[["concat_47", 0, 0, {}]]]}, {"name": "activation_11", "class_name": "ELU", "config": {"name": "activation_11", "trainable": true, "alpha": 1.0}, "inbound_nodes": [[["conv2d_transpose_5", 0, 0, {}]]]}, {"name": "activation_23", "class_name": "ELU", "config": {"name": "activation_23", "trainable": true, "alpha": 1.0}, "inbound_nodes": [[["conv2d_transpose_11", 0, 0, {}]]]}, {"name": "activation_35", "class_name": "ELU", "config": {"name": "activation_35", "trainable": true, "alpha": 1.0}, "inbound_nodes": [[["conv2d_transpose_17", 0, 0, {}]]]}, {"name": "activation_47", "class_name": "ELU", "config": {"name": "activation_47", "trainable": true, "alpha": 1.0}, "inbound_nodes": [[["conv2d_transpose_23", 0, 0, {}]]]}, {"name": "batch_normalization_11", "class_name": "BatchNormalization", "config": {"name": "batch_normalization_11", "trainable": true, "axis": -1, "momentum": 0.99, "epsilon": 0.001, "center": true, "scale": true, "beta_initializer": {"class_name": "Zeros", "config": {}}, "gamma_initializer": {"class_name": "Ones", "config": {}}, "moving_mean_initializer": {"class_name": "Zeros", "config": {}}, "moving_variance_initializer": {"class_name": "Ones", "config": {}}, "beta_regularizer": null, "gamma_regularizer": null, "beta_constraint": null, "gamma_constraint": null}, "inbound_nodes": [[["activation_11", 0, 0, {}]]]}, {"name": "batch_normalization_23", "class_name": "BatchNormalization", "config": {"name": "batch_normalization_23", "trainable": true, "axis": -1, "momentum": 0.99, "epsilon": 0.001, "center": true, "scale": true, "beta_initializer": {"class_name": "Zeros", "config": {}}, "gamma_initializer": {"class_name": "Ones", "config": {}}, "moving_mean_initializer": {"class_name": "Zeros", "config": {}}, "moving_variance_initializer": {"class_name": "Ones", "config": {}}, "beta_regularizer": null, "gamma_regularizer": null, "beta_constraint": null, "gamma_constraint": null}, "inbound_nodes": [[["activation_23", 0, 0, {}]]]}, {"name": "batch_normalization_35", "class_name": "BatchNormalization", "config": {"name": "batch_normalization_35", "trainable": true, "axis": -1, "momentum": 0.99, "epsilon": 0.001, "center": true, "scale": true, "beta_initializer": {"class_name": "Zeros", "config": {}}, "gamma_initializer": {"class_name": "Ones", "config": {}}, "moving_mean_initializer": {"class_name": "Zeros", "config": {}}, "moving_variance_initializer": {"class_name": "Ones", "config": {}}, "beta_regularizer": null, "gamma_regularizer": null, "beta_constraint": null, "gamma_constraint": null}, "inbound_nodes": [[["activation_35", 0, 0, {}]]]}, {"name": "batch_normalization_47", "class_name": "BatchNormalization", "config": {"name": "batch_normalization_47", "trainable": true, "axis": -1, "momentum": 0.99, "epsilon": 0.001, "center": true, "scale": true, "beta_initializer": {"class_name": "Zeros", "config": {}}, "gamma_initializer": {"class_name": "Ones", "config": {}}, "moving_mean_initializer": {"class_name": "Zeros", "config": {}}, "moving_variance_initializer": {"class_name": "Ones", "config": {}}, "beta_regularizer": null, "gamma_regularizer": null, "beta_constraint": null, "gamma_constraint": null}, "inbound_nodes": [[["activation_47", 0, 0, {}]]]}, {"name": "conv2d_6", "class_name": "Conv2D", "config": {"name": "conv2d_6", "trainable": true, "filters": 2, "kernel_size": [4, 4], "strides": [1, 1], "padding": "same", "data_format": "channels_last", "dilation_rate": [2, 2], "activation": "sigmoid", "use_bias": true, "kernel_initializer": {"class_name": "VarianceScaling", "config": {"scale": 1.0, "mode": "fan_avg", "distribution": "uniform", "seed": null}}, "bias_initializer": {"class_name": "Zeros", "config": {}}, "kernel_regularizer": null, "bias_regularizer": null, "activity_regularizer": null, "kernel_constraint": null, "bias_constraint": null}, "inbound_nodes": [[["batch_normalization_11", 0, 0, {}]]]}, {"name": "conv2d_13", "class_name": "Conv2D", "config": {"name": "conv2d_13", "trainable": true, "filters": 2, "kernel_size": [4, 4], "strides": [1, 1], "padding": "same", "data_format": "channels_last", "dilation_rate": [2, 2], "activation": "sigmoid", "use_bias": true, "kernel_initializer": {"class_name": "VarianceScaling", "config": {"scale": 1.0, "mode": "fan_avg", "distribution": "uniform", "seed": null}}, "bias_initializer": {"class_name": "Zeros", "config": {}}, "kernel_regularizer": null, "bias_regularizer": null, "activity_regularizer": null, "kernel_constraint": null, "bias_constraint": null}, "inbound_nodes": [[["batch_normalization_23", 0, 0, {}]]]}, {"name": "conv2d_20", "class_name": "Conv2D", "config": {"name": "conv2d_20", "trainable": true, "filters": 2, "kernel_size": [4, 4], "strides": [1, 1], "padding": "same", "data_format": "channels_last", "dilation_rate": [2, 2], "activation": "sigmoid", "use_bias": true, "kernel_initializer": {"class_name": "VarianceScaling", "config": {"scale": 1.0, "mode": "fan_avg", "distribution": "uniform", "seed": null}}, "bias_initializer": {"class_name": "Zeros", "config": {}}, "kernel_regularizer": null, "bias_regularizer": null, "activity_regularizer": null, "kernel_constraint": null, "bias_constraint": null}, "inbound_nodes": [[["batch_normalization_35", 0, 0, {}]]]}, {"name": "conv2d_27", "class_name": "Conv2D", "config": {"name": "conv2d_27", "trainable": true, "filters": 2, "kernel_size": [4, 4], "strides": [1, 1], "padding": "same", "data_format": "channels_last", "dilation_rate": [2, 2], "activation": "sigmoid", "use_bias": true, "kernel_initializer": {"class_name": "VarianceScaling", "config": {"scale": 1.0, "mode": "fan_avg", "distribution": "uniform", "seed": null}}, "bias_initializer": {"class_name": "Zeros", "config": {}}, "kernel_regularizer": null, "bias_regularizer": null, "activity_regularizer": null, "kernel_constraint": null, "bias_constraint": null}, "inbound_nodes": [[["batch_normalization_47", 0, 0, {}]]]}, {"name": "out_6", "class_name": "Multiply", "config": {"name": "out_6", "trainable": true}, "inbound_nodes": [[["conv2d_6", 0, 0, {}], ["input_1", 0, 0, {}]]]}, {"name": "out_13", "class_name": "Multiply", "config": {"name": "out_13", "trainable": true}, "inbound_nodes": [[["conv2d_13", 0, 0, {}], ["input_1", 0, 0, {}]]]}, {"name": "out_20", "class_name": "Multiply", "config": {"name": "out_20", "trainable": true}, "inbound_nodes": [[["conv2d_20", 0, 0, {}], ["input_1", 0, 0, {}]]]}, {"name": "out_27", "class_name": "Multiply", "config": {"name": "out_27", "trainable": true}, "inbound_nodes": [[["conv2d_27", 0, 0, {}], ["input_1", 0, 0, {}]]]}], "input_layers": [["input_1", 0, 0]], "output_layers": [["out_6", 0, 0], ["out_13", 0, 0], ["out_20", 0, 0], ["out_27", 0, 0]]}}}, "weightsManifest": [{"paths": ["group1-shard1of19.bin", "group1-shard2of19.bin", "group1-shard3of19.bin", "group1-shard4of19.bin", "group1-shard5of19.bin", "group1-shard6of19.bin", "group1-shard7of19.bin", "group1-shard8of19.bin", "group1-shard9of19.bin", "group1-shard10of19.bin", "group1-shard11of19.bin", "group1-shard12of19.bin", "group1-shard13of19.bin", "group1-shard14of19.bin", "group1-shard15of19.bin", "group1-shard16of19.bin", "group1-shard17of19.bin", "group1-shard18of19.bin", "group1-shard19of19.bin"], "weights": [{"name": "batch_normalization/gamma", "shape": [16], "dtype": "float32", "quantization": {"min": 0.14881674945354462, "scale": 2.081190579323344e-05, "dtype": "uint16"}}, {"name": "batch_normalization/beta", "shape": [16], "dtype": "float32", "quantization": {"min": -0.12747564468797978, "scale": 7.832604896342844e-06, "dtype": "uint16"}}, {"name": "batch_normalization/moving_mean", "shape": [16], "dtype": "float32", "quantization": {"min": 0.0, "scale": 1.0, "dtype": "uint16"}}, {"name": "batch_normalization/moving_variance", "shape": [16], "dtype": "float32", "quantization": {"min": 1.0, "scale": 1.0, "dtype": "uint16"}}, {"name": "batch_normalization_1/gamma", "shape": [32], "dtype": "float32", "quantization": {"min": 0.29553043842315674, "scale": 2.576943583280005e-05, "dtype": "uint16"}}, {"name": "batch_normalization_1/beta", "shape": [32], "dtype": "float32", "quantization": {"min": -0.5561504503987043, "scale": 1.0940305899453216e-05, "dtype": "uint16"}}, {"name": "batch_normalization_1/moving_mean", "shape": [32], "dtype": "float32", "quantization": {"min": 0.0, "scale": 1.0, "dtype": "uint16"}}, {"name": "batch_normalization_1/moving_variance", "shape": [32], "dtype": "float32", "quantization": {"min": 1.0, "scale": 1.0, "dtype": "uint16"}}, {"name": "batch_normalization_10/gamma", "shape": [16], "dtype": "float32", "quantization": {"min": 0.6537237763404846, "scale": 7.336146227416853e-06, "dtype": "uint16"}}, {"name": "batch_normalization_10/beta", "shape": [16], "dtype": "float32", "quantization": {"min": -1.6707204468983154, "scale": 3.627348502786243e-05, "dtype": "uint16"}}, {"name": "batch_normalization_10/moving_mean", "shape": [16], "dtype": "float32", "quantization": {"min": 0.0, "scale": 1.0, "dtype": "uint16"}}, {"name": "batch_normalization_10/moving_variance", "shape": [16], "dtype": "float32", "quantization": {"min": 1.0, "scale": 1.0, "dtype": "uint16"}}, {"name": "batch_normalization_11/gamma", "shape": [1], "dtype": "float32", "quantization": {"min": 0.053638361394405365, "scale": 1.0, "dtype": "uint16"}}, {"name": "batch_normalization_11/beta", "shape": [1], "dtype": "float32", "quantization": {"min": -1.4574613571166992, "scale": 1.0, "dtype": "uint16"}}, {"name": "batch_normalization_11/moving_mean", "shape": [1], "dtype": "float32", "quantization": {"min": 0.0, "scale": 1.0, "dtype": "uint16"}}, {"name": "batch_normalization_11/moving_variance", "shape": [1], "dtype": "float32", "quantization": {"min": 1.0, "scale": 1.0, "dtype": "uint16"}}, {"name": "batch_normalization_12/gamma", "shape": [16], "dtype": "float32", "quantization": {"min": 0.16920486092567444, "scale": 2.3921708670671665e-05, "dtype": "uint16"}}, {"name": "batch_normalization_12/beta", "shape": [16], "dtype": "float32", "quantization": {"min": -0.21537821413091493, "scale": 9.754006346221409e-06, "dtype": "uint16"}}, {"name": "batch_normalization_12/moving_mean", "shape": [16], "dtype": "float32", "quantization": {"min": 0.0, "scale": 1.0, "dtype": "uint16"}}, {"name": "batch_normalization_12/moving_variance", "shape": [16], "dtype": "float32", "quantization": {"min": 1.0, "scale": 1.0, "dtype": "uint16"}}, {"name": "batch_normalization_13/gamma", "shape": [32], "dtype": "float32", "quantization": {"min": 0.3639880120754242, "scale": 2.065461833535047e-05, "dtype": "uint16"}}, {"name": "batch_normalization_13/beta", "shape": [32], "dtype": "float32", "quantization": {"min": -0.35068543959402465, "scale": 7.280616181078843e-06, "dtype": "uint16"}}, {"name": "batch_normalization_13/moving_mean", "shape": [32], "dtype": "float32", "quantization": {"min": 0.0, "scale": 1.0, "dtype": "uint16"}}, {"name": "batch_normalization_13/moving_variance", "shape": [32], "dtype": "float32", "quantization": {"min": 1.0, "scale": 1.0, "dtype": "uint16"}}, {"name": "batch_normalization_14/gamma", "shape": [64], "dtype": "float32", "quantization": {"min": 0.39075928926467896, "scale": 8.054646181825588e-06, "dtype": "uint16"}}, {"name": "batch_normalization_14/beta", "shape": [64], "dtype": "float32", "quantization": {"min": -0.5035102201418081, "scale": 1.0808883501316105e-05, "dtype": "uint16"}}, {"name": "batch_normalization_14/moving_mean", "shape": [64], "dtype": "float32", "quantization": {"min": 0.0, "scale": 1.0, "dtype": "uint16"}}, {"name": "batch_normalization_14/moving_variance", "shape": [64], "dtype": "float32", "quantization": {"min": 1.0, "scale": 1.0, "dtype": "uint16"}}, {"name": "batch_normalization_15/gamma", "shape": [128], "dtype": "float32", "quantization": {"min": 0.2585304379463196, "scale": 9.811526624709106e-06, "dtype": "uint16"}}, {"name": "batch_normalization_15/beta", "shape": [128], "dtype": "float32", "quantization": {"min": -0.6517919577504128, "scale": 1.2798805281200424e-05, "dtype": "uint16"}}, {"name": "batch_normalization_15/moving_mean", "shape": [128], "dtype": "float32", "quantization": {"min": 0.0, "scale": 1.0, "dtype": "uint16"}}, {"name": "batch_normalization_15/moving_variance", "shape": [128], "dtype": "float32", "quantization": {"min": 1.0, "scale": 1.0, "dtype": "uint16"}}, {"name": "batch_normalization_16/gamma", "shape": [256], "dtype": "float32", "quantization": {"min": 0.25001633167266846, "scale": 1.0201321992810844e-05, "dtype": "uint16"}}, {"name": "batch_normalization_16/beta", "shape": [256], "dtype": "float32", "quantization": {"min": -0.8225999248680544, "scale": 1.2611147434660797e-05, "dtype": "uint16"}}, {"name": "batch_normalization_16/moving_mean", "shape": [256], "dtype": "float32", "quantization": {"min": 0.0, "scale": 1.0, "dtype": "uint16"}}, {"name": "batch_normalization_16/moving_variance", "shape": [256], "dtype": "float32", "quantization": {"min": 1.0, "scale": 1.0, "dtype": "uint16"}}, {"name": "batch_normalization_18/gamma", "shape": [256], "dtype": "float32", "quantization": {"min": 0.21824389696121216, "scale": 1.2654275727543067e-05, "dtype": "uint16"}}, {"name": "batch_normalization_18/beta", "shape": [256], "dtype": "float32", "quantization": {"min": -1.8070233684105634, "scale": 3.1181918662500446e-05, "dtype": "uint16"}}, {"name": "batch_normalization_18/moving_mean", "shape": [256], "dtype": "float32", "quantization": {"min": 0.0, "scale": 1.0, "dtype": "uint16"}}, {"name": "batch_normalization_18/moving_variance", "shape": [256], "dtype": "float32", "quantization": {"min": 1.0, "scale": 1.0, "dtype": "uint16"}}, {"name": "batch_normalization_19/gamma", "shape": [128], "dtype": "float32", "quantization": {"min": 0.10670722275972366, "scale": 1.2547716679139769e-05, "dtype": "uint16"}}, {"name": "batch_normalization_19/beta", "shape": [128], "dtype": "float32", "quantization": {"min": -1.8553259701498532, "scale": 3.689621100029538e-05, "dtype": "uint16"}}, {"name": "batch_normalization_19/moving_mean", "shape": [128], "dtype": "float32", "quantization": {"min": 0.0, "scale": 1.0, "dtype": "uint16"}}, {"name": "batch_normalization_19/moving_variance", "shape": [128], "dtype": "float32", "quantization": {"min": 1.0, "scale": 1.0, "dtype": "uint16"}}, {"name": "batch_normalization_2/gamma", "shape": [64], "dtype": "float32", "quantization": {"min": 0.3195280134677887, "scale": 9.311200952679067e-06, "dtype": "uint16"}}, {"name": "batch_normalization_2/beta", "shape": [64], "dtype": "float32", "quantization": {"min": -0.5113856798043429, "scale": 1.3669758882767786e-05, "dtype": "uint16"}}, {"name": "batch_normalization_2/moving_mean", "shape": [64], "dtype": "float32", "quantization": {"min": 0.0, "scale": 1.0, "dtype": "uint16"}}, {"name": "batch_normalization_2/moving_variance", "shape": [64], "dtype": "float32", "quantization": {"min": 1.0, "scale": 1.0, "dtype": "uint16"}}, {"name": "batch_normalization_20/gamma", "shape": [64], "dtype": "float32", "quantization": {"min": 0.13463696837425232, "scale": 7.607296656041558e-06, "dtype": "uint16"}}, {"name": "batch_normalization_20/beta", "shape": [64], "dtype": "float32", "quantization": {"min": -1.716532018010582, "scale": 4.390556624745708e-05, "dtype": "uint16"}}, {"name": "batch_normalization_20/moving_mean", "shape": [64], "dtype": "float32", "quantization": {"min": 0.0, "scale": 1.0, "dtype": "uint16"}}, {"name": "batch_normalization_20/moving_variance", "shape": [64], "dtype": "float32", "quantization": {"min": 1.0, "scale": 1.0, "dtype": "uint16"}}, {"name": "batch_normalization_21/gamma", "shape": [32], "dtype": "float32", "quantization": {"min": 0.15903609991073608, "scale": 1.6318853145025138e-05, "dtype": "uint16"}}, {"name": "batch_normalization_21/beta", "shape": [32], "dtype": "float32", "quantization": {"min": -0.914472702193553, "scale": 2.1085860918941018e-05, "dtype": "uint16"}}, {"name": "batch_normalization_21/moving_mean", "shape": [32], "dtype": "float32", "quantization": {"min": 0.0, "scale": 1.0, "dtype": "uint16"}}, {"name": "batch_normalization_21/moving_variance", "shape": [32], "dtype": "float32", "quantization": {"min": 1.0, "scale": 1.0, "dtype": "uint16"}}, {"name": "batch_normalization_22/gamma", "shape": [16], "dtype": "float32", "quantization": {"min": 0.49976709485054016, "scale": 1.8039905771179968e-05, "dtype": "uint16"}}, {"name": "batch_normalization_22/beta", "shape": [16], "dtype": "float32", "quantization": {"min": -1.2658960469447385, "scale": 3.573958348234722e-05, "dtype": "uint16"}}, {"name": "batch_normalization_22/moving_mean", "shape": [16], "dtype": "float32", "quantization": {"min": 0.0, "scale": 1.0, "dtype": "uint16"}}, {"name": "batch_normalization_22/moving_variance", "shape": [16], "dtype": "float32", "quantization": {"min": 1.0, "scale": 1.0, "dtype": "uint16"}}, {"name": "batch_normalization_23/gamma", "shape": [1], "dtype": "float32", "quantization": {"min": 0.037857312709093094, "scale": 1.0, "dtype": "uint16"}}, {"name": "batch_normalization_23/beta", "shape": [1], "dtype": "float32", "quantization": {"min": -1.2360261678695679, "scale": 1.0, "dtype": "uint16"}}, {"name": "batch_normalization_23/moving_mean", "shape": [1], "dtype": "float32", "quantization": {"min": 0.0, "scale": 1.0, "dtype": "uint16"}}, {"name": "batch_normalization_23/moving_variance", "shape": [1], "dtype": "float32", "quantization": {"min": 1.0, "scale": 1.0, "dtype": "uint16"}}, {"name": "batch_normalization_24/gamma", "shape": [16], "dtype": "float32", "quantization": {"min": 0.1220237985253334, "scale": 3.887887637966456e-05, "dtype": "uint16"}}, {"name": "batch_normalization_24/beta", "shape": [16], "dtype": "float32", "quantization": {"min": -0.22702187281447272, "scale": 2.2435208302645787e-05, "dtype": "uint16"}}, {"name": "batch_normalization_24/moving_mean", "shape": [16], "dtype": "float32", "quantization": {"min": 0.0, "scale": 1.0, "dtype": "uint16"}}, {"name": "batch_normalization_24/moving_variance", "shape": [16], "dtype": "float32", "quantization": {"min": 1.0, "scale": 1.0, "dtype": "uint16"}}, {"name": "batch_normalization_25/gamma", "shape": [32], "dtype": "float32", "quantization": {"min": 0.30874907970428467, "scale": 8.195576355278496e-06, "dtype": "uint16"}}, {"name": "batch_normalization_25/beta", "shape": [32], "dtype": "float32", "quantization": {"min": -0.30860171894318833, "scale": 3.0116299301570054e-05, "dtype": "uint16"}}, {"name": "batch_normalization_25/moving_mean", "shape": [32], "dtype": "float32", "quantization": {"min": 0.0, "scale": 1.0, "dtype": "uint16"}}, {"name": "batch_normalization_25/moving_variance", "shape": [32], "dtype": "float32", "quantization": {"min": 1.0, "scale": 1.0, "dtype": "uint16"}}, {"name": "batch_normalization_26/gamma", "shape": [64], "dtype": "float32", "quantization": {"min": 0.45757970213890076, "scale": 7.046483661159458e-06, "dtype": "uint16"}}, {"name": "batch_normalization_26/beta", "shape": [64], "dtype": "float32", "quantization": {"min": -0.5511954782284387, "scale": 9.485217570312655e-06, "dtype": "uint16"}}, {"name": "batch_normalization_26/moving_mean", "shape": [64], "dtype": "float32", "quantization": {"min": 0.0, "scale": 1.0, "dtype": "uint16"}}, {"name": "batch_normalization_26/moving_variance", "shape": [64], "dtype": "float32", "quantization": {"min": 1.0, "scale": 1.0, "dtype": "uint16"}}, {"name": "batch_normalization_27/gamma", "shape": [128], "dtype": "float32", "quantization": {"min": 0.5854982733726501, "scale": 5.146295134641217e-06, "dtype": "uint16"}}, {"name": "batch_normalization_27/beta", "shape": [128], "dtype": "float32", "quantization": {"min": -0.7371263703538122, "scale": 1.2795999901986117e-05, "dtype": "uint16"}}, {"name": "batch_normalization_27/moving_mean", "shape": [128], "dtype": "float32", "quantization": {"min": 0.0, "scale": 1.0, "dtype": "uint16"}}, {"name": "batch_normalization_27/moving_variance", "shape": [128], "dtype": "float32", "quantization": {"min": 1.0, "scale": 1.0, "dtype": "uint16"}}, {"name": "batch_normalization_28/gamma", "shape": [256], "dtype": "float32", "quantization": {"min": 0.6414313912391663, "scale": 9.273521376481962e-06, "dtype": "uint16"}}, {"name": "batch_normalization_28/beta", "shape": [256], "dtype": "float32", "quantization": {"min": -0.5138960480690002, "scale": 7.273952723313426e-06, "dtype": "uint16"}}, {"name": "batch_normalization_28/moving_mean", "shape": [256], "dtype": "float32", "quantization": {"min": 0.0, "scale": 1.0, "dtype": "uint16"}}, {"name": "batch_normalization_28/moving_variance", "shape": [256], "dtype": "float32", "quantization": {"min": 1.0, "scale": 1.0, "dtype": "uint16"}}, {"name": "batch_normalization_3/gamma", "shape": [128], "dtype": "float32", "quantization": {"min": 0.13944320380687714, "scale": 9.646725716448634e-06, "dtype": "uint16"}}, {"name": "batch_normalization_3/beta", "shape": [128], "dtype": "float32", "quantization": {"min": -2.118097323245184, "scale": 3.349194085014997e-05, "dtype": "uint16"}}, {"name": "batch_normalization_3/moving_mean", "shape": [128], "dtype": "float32", "quantization": {"min": 0.0, "scale": 1.0, "dtype": "uint16"}}, {"name": "batch_normalization_3/moving_variance", "shape": [128], "dtype": "float32", "quantization": {"min": 1.0, "scale": 1.0, "dtype": "uint16"}}, {"name": "batch_normalization_30/gamma", "shape": [256], "dtype": "float32", "quantization": {"min": 0.3346664607524872, "scale": 1.6105427406941435e-05, "dtype": "uint16"}}, {"name": "batch_normalization_30/beta", "shape": [256], "dtype": "float32", "quantization": {"min": -0.6904615486696836, "scale": 1.863895769003573e-05, "dtype": "uint16"}}, {"name": "batch_normalization_30/moving_mean", "shape": [256], "dtype": "float32", "quantization": {"min": 0.0, "scale": 1.0, "dtype": "uint16"}}, {"name": "batch_normalization_30/moving_variance", "shape": [256], "dtype": "float32", "quantization": {"min": 1.0, "scale": 1.0, "dtype": "uint16"}}, {"name": "batch_normalization_31/gamma", "shape": [128], "dtype": "float32", "quantization": {"min": 0.21126489341259003, "scale": 2.16109036235121e-05, "dtype": "uint16"}}, {"name": "batch_normalization_31/beta", "shape": [128], "dtype": "float32", "quantization": {"min": -0.7656318413744695, "scale": 1.9457466298367672e-05, "dtype": "uint16"}}, {"name": "batch_normalization_31/moving_mean", "shape": [128], "dtype": "float32", "quantization": {"min": 0.0, "scale": 1.0, "dtype": "uint16"}}, {"name": "batch_normalization_31/moving_variance", "shape": [128], "dtype": "float32", "quantization": {"min": 1.0, "scale": 1.0, "dtype": "uint16"}}, {"name": "batch_normalization_32/gamma", "shape": [64], "dtype": "float32", "quantization": {"min": 0.22713689506053925, "scale": 1.2306574462907506e-05, "dtype": "uint16"}}, {"name": "batch_normalization_32/beta", "shape": [64], "dtype": "float32", "quantization": {"min": -0.926483358161404, "scale": 2.3956852536948364e-05, "dtype": "uint16"}}, {"name": "batch_normalization_32/moving_mean", "shape": [64], "dtype": "float32", "quantization": {"min": 0.0, "scale": 1.0, "dtype": "uint16"}}, {"name": "batch_normalization_32/moving_variance", "shape": [64], "dtype": "float32", "quantization": {"min": 1.0, "scale": 1.0, "dtype": "uint16"}}, {"name": "batch_normalization_33/gamma", "shape": [32], "dtype": "float32", "quantization": {"min": 0.40758684277534485, "scale": 8.376912811650667e-06, "dtype": "uint16"}}, {"name": "batch_normalization_33/beta", "shape": [32], "dtype": "float32", "quantization": {"min": -1.4035773378647445, "scale": 3.204733972337705e-05, "dtype": "uint16"}}, {"name": "batch_normalization_33/moving_mean", "shape": [32], "dtype": "float32", "quantization": {"min": 0.0, "scale": 1.0, "dtype": "uint16"}}, {"name": "batch_normalization_33/moving_variance", "shape": [32], "dtype": "float32", "quantization": {"min": 1.0, "scale": 1.0, "dtype": "uint16"}}, {"name": "batch_normalization_34/gamma", "shape": [16], "dtype": "float32", "quantization": {"min": 0.34258994460105896, "scale": 1.2707807128777028e-05, "dtype": "uint16"}}, {"name": "batch_normalization_34/beta", "shape": [16], "dtype": "float32", "quantization": {"min": -1.5059702953448637, "scale": 4.247314480483018e-05, "dtype": "uint16"}}, {"name": "batch_normalization_34/moving_mean", "shape": [16], "dtype": "float32", "quantization": {"min": 0.0, "scale": 1.0, "dtype": "uint16"}}, {"name": "batch_normalization_34/moving_variance", "shape": [16], "dtype": "float32", "quantization": {"min": 1.0, "scale": 1.0, "dtype": "uint16"}}, {"name": "batch_normalization_35/gamma", "shape": [1], "dtype": "float32", "quantization": {"min": 0.028522206470370293, "scale": 1.0, "dtype": "uint16"}}, {"name": "batch_normalization_35/beta", "shape": [1], "dtype": "float32", "quantization": {"min": -1.6332423686981201, "scale": 1.0, "dtype": "uint16"}}, {"name": "batch_normalization_35/moving_mean", "shape": [1], "dtype": "float32", "quantization": {"min": 0.0, "scale": 1.0, "dtype": "uint16"}}, {"name": "batch_normalization_35/moving_variance", "shape": [1], "dtype": "float32", "quantization": {"min": 1.0, "scale": 1.0, "dtype": "uint16"}}, {"name": "batch_normalization_36/gamma", "shape": [16], "dtype": "float32", "quantization": {"min": 0.08889729529619217, "scale": 2.0947938831427135e-05, "dtype": "uint16"}}, {"name": "batch_normalization_36/beta", "shape": [16], "dtype": "float32", "quantization": {"min": -0.15363322974588323, "scale": 8.81278206538652e-06, "dtype": "uint16"}}, {"name": "batch_normalization_36/moving_mean", "shape": [16], "dtype": "float32", "quantization": {"min": 0.0, "scale": 1.0, "dtype": "uint16"}}, {"name": "batch_normalization_36/moving_variance", "shape": [16], "dtype": "float32", "quantization": {"min": 1.0, "scale": 1.0, "dtype": "uint16"}}, {"name": "batch_normalization_37/gamma", "shape": [32], "dtype": "float32", "quantization": {"min": 0.33366936445236206, "scale": 1.9443329806512267e-05, "dtype": "uint16"}}, {"name": "batch_normalization_37/beta", "shape": [32], "dtype": "float32", "quantization": {"min": -0.6055579270208837, "scale": 1.1350451294650218e-05, "dtype": "uint16"}}, {"name": "batch_normalization_37/moving_mean", "shape": [32], "dtype": "float32", "quantization": {"min": 0.0, "scale": 1.0, "dtype": "uint16"}}, {"name": "batch_normalization_37/moving_variance", "shape": [32], "dtype": "float32", "quantization": {"min": 1.0, "scale": 1.0, "dtype": "uint16"}}, {"name": "batch_normalization_38/gamma", "shape": [64], "dtype": "float32", "quantization": {"min": 0.2888968586921692, "scale": 1.1399552252214962e-05, "dtype": "uint16"}}, {"name": "batch_normalization_38/beta", "shape": [64], "dtype": "float32", "quantization": {"min": -0.38747948237412067, "scale": 9.918078283355193e-06, "dtype": "uint16"}}, {"name": "batch_normalization_38/moving_mean", "shape": [64], "dtype": "float32", "quantization": {"min": 0.0, "scale": 1.0, "dtype": "uint16"}}, {"name": "batch_normalization_38/moving_variance", "shape": [64], "dtype": "float32", "quantization": {"min": 1.0, "scale": 1.0, "dtype": "uint16"}}, {"name": "batch_normalization_39/gamma", "shape": [128], "dtype": "float32", "quantization": {"min": 0.32434502243995667, "scale": 7.349545562568351e-06, "dtype": "uint16"}}, {"name": "batch_normalization_39/beta", "shape": [128], "dtype": "float32", "quantization": {"min": -1.0846415915278111, "scale": 1.6912906262615757e-05, "dtype": "uint16"}}, {"name": "batch_normalization_39/moving_mean", "shape": [128], "dtype": "float32", "quantization": {"min": 0.0, "scale": 1.0, "dtype": "uint16"}}, {"name": "batch_normalization_39/moving_variance", "shape": [128], "dtype": "float32", "quantization": {"min": 1.0, "scale": 1.0, "dtype": "uint16"}}, {"name": "batch_normalization_4/gamma", "shape": [256], "dtype": "float32", "quantization": {"min": 0.25850123167037964, "scale": 1.067259750604866e-05, "dtype": "uint16"}}, {"name": "batch_normalization_4/beta", "shape": [256], "dtype": "float32", "quantization": {"min": -0.6981385350227356, "scale": 9.334707542989004e-06, "dtype": "uint16"}}, {"name": "batch_normalization_4/moving_mean", "shape": [256], "dtype": "float32", "quantization": {"min": 0.0, "scale": 1.0, "dtype": "uint16"}}, {"name": "batch_normalization_4/moving_variance", "shape": [256], "dtype": "float32", "quantization": {"min": 1.0, "scale": 1.0, "dtype": "uint16"}}, {"name": "batch_normalization_40/gamma", "shape": [256], "dtype": "float32", "quantization": {"min": 0.32081809639930725, "scale": 8.666039222600285e-06, "dtype": "uint16"}}, {"name": "batch_normalization_40/beta", "shape": [256], "dtype": "float32", "quantization": {"min": -0.7391887903213501, "scale": 9.850350476388138e-06, "dtype": "uint16"}}, {"name": "batch_normalization_40/moving_mean", "shape": [256], "dtype": "float32", "quantization": {"min": 0.0, "scale": 1.0, "dtype": "uint16"}}, {"name": "batch_normalization_40/moving_variance", "shape": [256], "dtype": "float32", "quantization": {"min": 1.0, "scale": 1.0, "dtype": "uint16"}}, {"name": "batch_normalization_42/gamma", "shape": [256], "dtype": "float32", "quantization": {"min": 0.2659395635128021, "scale": 1.0783891797183971e-05, "dtype": "uint16"}}, {"name": "batch_normalization_42/beta", "shape": [256], "dtype": "float32", "quantization": {"min": -0.7638824793074073, "scale": 1.3696768559061291e-05, "dtype": "uint16"}}, {"name": "batch_normalization_42/moving_mean", "shape": [256], "dtype": "float32", "quantization": {"min": 0.0, "scale": 1.0, "dtype": "uint16"}}, {"name": "batch_normalization_42/moving_variance", "shape": [256], "dtype": "float32", "quantization": {"min": 1.0, "scale": 1.0, "dtype": "uint16"}}, {"name": "batch_normalization_43/gamma", "shape": [128], "dtype": "float32", "quantization": {"min": 0.10141835361719131, "scale": 2.4901008277624433e-05, "dtype": "uint16"}}, {"name": "batch_normalization_43/beta", "shape": [128], "dtype": "float32", "quantization": {"min": -1.3809791063738512, "scale": 2.8113250811731024e-05, "dtype": "uint16"}}, {"name": "batch_normalization_43/moving_mean", "shape": [128], "dtype": "float32", "quantization": {"min": 0.0, "scale": 1.0, "dtype": "uint16"}}, {"name": "batch_normalization_43/moving_variance", "shape": [128], "dtype": "float32", "quantization": {"min": 1.0, "scale": 1.0, "dtype": "uint16"}}, {"name": "batch_normalization_44/gamma", "shape": [64], "dtype": "float32", "quantization": {"min": 0.15154977142810822, "scale": 4.750315335574172e-06, "dtype": "uint16"}}, {"name": "batch_normalization_44/beta", "shape": [64], "dtype": "float32", "quantization": {"min": -0.969298854215818, "scale": 1.7445669700254097e-05, "dtype": "uint16"}}, {"name": "batch_normalization_44/moving_mean", "shape": [64], "dtype": "float32", "quantization": {"min": 0.0, "scale": 1.0, "dtype": "uint16"}}, {"name": "batch_normalization_44/moving_variance", "shape": [64], "dtype": "float32", "quantization": {"min": 1.0, "scale": 1.0, "dtype": "uint16"}}, {"name": "batch_normalization_45/gamma", "shape": [32], "dtype": "float32", "quantization": {"min": 0.31821131706237793, "scale": 1.4308214351333615e-05, "dtype": "uint16"}}, {"name": "batch_normalization_45/beta", "shape": [32], "dtype": "float32", "quantization": {"min": -0.929748158297732, "scale": 1.901092214243103e-05, "dtype": "uint16"}}, {"name": "batch_normalization_45/moving_mean", "shape": [32], "dtype": "float32", "quantization": {"min": 0.0, "scale": 1.0, "dtype": "uint16"}}, {"name": "batch_normalization_45/moving_variance", "shape": [32], "dtype": "float32", "quantization": {"min": 1.0, "scale": 1.0, "dtype": "uint16"}}, {"name": "batch_normalization_46/gamma", "shape": [16], "dtype": "float32", "quantization": {"min": 0.5475261211395264, "scale": 3.202269476939095e-05, "dtype": "uint16"}}, {"name": "batch_normalization_46/beta", "shape": [16], "dtype": "float32", "quantization": {"min": -0.9591597377421737, "scale": 2.8465091932044564e-05, "dtype": "uint16"}}, {"name": "batch_normalization_46/moving_mean", "shape": [16], "dtype": "float32", "quantization": {"min": 0.0, "scale": 1.0, "dtype": "uint16"}}, {"name": "batch_normalization_46/moving_variance", "shape": [16], "dtype": "float32", "quantization": {"min": 1.0, "scale": 1.0, "dtype": "uint16"}}, {"name": "batch_normalization_47/gamma", "shape": [1], "dtype": "float32", "quantization": {"min": 0.03773784637451172, "scale": 1.0, "dtype": "uint16"}}, {"name": "batch_normalization_47/beta", "shape": [1], "dtype": "float32", "quantization": {"min": -1.5147653818130493, "scale": 1.0, "dtype": "uint16"}}, {"name": "batch_normalization_47/moving_mean", "shape": [1], "dtype": "float32", "quantization": {"min": 0.0, "scale": 1.0, "dtype": "uint16"}}, {"name": "batch_normalization_47/moving_variance", "shape": [1], "dtype": "float32", "quantization": {"min": 1.0, "scale": 1.0, "dtype": "uint16"}}, {"name": "batch_normalization_6/gamma", "shape": [256], "dtype": "float32", "quantization": {"min": 0.18668429553508759, "scale": 1.1943441338821799e-05, "dtype": "uint16"}}, {"name": "batch_normalization_6/beta", "shape": [256], "dtype": "float32", "quantization": {"min": -1.6121367561600706, "scale": 2.6334788639758084e-05, "dtype": "uint16"}}, {"name": "batch_normalization_6/moving_mean", "shape": [256], "dtype": "float32", "quantization": {"min": 0.0, "scale": 1.0, "dtype": "uint16"}}, {"name": "batch_normalization_6/moving_variance", "shape": [256], "dtype": "float32", "quantization": {"min": 1.0, "scale": 1.0, "dtype": "uint16"}}, {"name": "batch_normalization_7/gamma", "shape": [128], "dtype": "float32", "quantization": {"min": 0.09399612247943878, "scale": 8.21449572537778e-06, "dtype": "uint16"}}, {"name": "batch_normalization_7/beta", "shape": [128], "dtype": "float32", "quantization": {"min": -2.087791503178334, "scale": 3.7053713784334616e-05, "dtype": "uint16"}}, {"name": "batch_normalization_7/moving_mean", "shape": [128], "dtype": "float32", "quantization": {"min": 0.0, "scale": 1.0, "dtype": "uint16"}}, {"name": "batch_normalization_7/moving_variance", "shape": [128], "dtype": "float32", "quantization": {"min": 1.0, "scale": 1.0, "dtype": "uint16"}}, {"name": "batch_normalization_8/gamma", "shape": [64], "dtype": "float32", "quantization": {"min": 0.14738614857196808, "scale": 6.9750301659839365e-06, "dtype": "uint16"}}, {"name": "batch_normalization_8/beta", "shape": [64], "dtype": "float32", "quantization": {"min": -1.3199017891132958, "scale": 2.6042811828919457e-05, "dtype": "uint16"}}, {"name": "batch_normalization_8/moving_mean", "shape": [64], "dtype": "float32", "quantization": {"min": 0.0, "scale": 1.0, "dtype": "uint16"}}, {"name": "batch_normalization_8/moving_variance", "shape": [64], "dtype": "float32", "quantization": {"min": 1.0, "scale": 1.0, "dtype": "uint16"}}, {"name": "batch_normalization_9/gamma", "shape": [32], "dtype": "float32", "quantization": {"min": 0.317050963640213, "scale": 1.4647557004743922e-05, "dtype": "uint16"}}, {"name": "batch_normalization_9/beta", "shape": [32], "dtype": "float32", "quantization": {"min": -0.8743070033860442, "scale": 1.8421588322750135e-05, "dtype": "uint16"}}, {"name": "batch_normalization_9/moving_mean", "shape": [32], "dtype": "float32", "quantization": {"min": 0.0, "scale": 1.0, "dtype": "uint16"}}, {"name": "batch_normalization_9/moving_variance", "shape": [32], "dtype": "float32", "quantization": {"min": 1.0, "scale": 1.0, "dtype": "uint16"}}, {"name": "conv2d/kernel", "shape": [5, 5, 2, 16], "dtype": "float32", "quantization": {"min": -0.9306389356774543, "scale": 2.6894747151329487e-05, "dtype": "uint16"}}, {"name": "conv2d/bias", "shape": [16], "dtype": "float32", "quantization": {"min": -0.10561978268484197, "scale": 8.200930404910472e-06, "dtype": "uint16"}}, {"name": "conv2d_1/kernel", "shape": [5, 5, 16, 32], "dtype": "float32", "quantization": {"min": -0.9780229669291376, "scale": 3.0189621154745575e-05, "dtype": "uint16"}}, {"name": "conv2d_1/bias", "shape": [32], "dtype": "float32", "quantization": {"min": -0.5106038930915063, "scale": 1.2139315607710199e-05, "dtype": "uint16"}}, {"name": "conv2d_10/kernel", "shape": [5, 5, 64, 128], "dtype": "float32", "quantization": {"min": -0.9601482929804691, "scale": 2.8866222505576007e-05, "dtype": "uint16"}}, {"name": "conv2d_10/bias", "shape": [128], "dtype": "float32", "quantization": {"min": -0.5191497438003244, "scale": 1.2219888518037954e-05, "dtype": "uint16"}}, {"name": "conv2d_11/kernel", "shape": [5, 5, 128, 256], "dtype": "float32", "quantization": {"min": -1.5262477966725365, "scale": 4.512855696843692e-05, "dtype": "uint16"}}, {"name": "conv2d_11/bias", "shape": [256], "dtype": "float32", "quantization": {"min": -0.5672966084500659, "scale": 1.2742225207207068e-05, "dtype": "uint16"}}, {"name": "conv2d_12/kernel", "shape": [5, 5, 256, 512], "dtype": "float32", "quantization": {"min": -0.8480940927236424, "scale": 2.5809315055497336e-05, "dtype": "uint16"}}, {"name": "conv2d_12/bias", "shape": [512], "dtype": "float32", "quantization": {"min": -1.2242415792619898, "scale": 4.054585610591475e-05, "dtype": "uint16"}}, {"name": "conv2d_13/kernel", "shape": [4, 4, 1, 2], "dtype": "float32", "quantization": {"min": -2.2567665660586864, "scale": 3.475477509561534e-05, "dtype": "uint16"}}, {"name": "conv2d_13/bias", "shape": [2], "dtype": "float32", "quantization": {"min": 0.007796803023666143, "scale": 2.5190568893654465e-07, "dtype": "uint16"}}, {"name": "conv2d_14/kernel", "shape": [5, 5, 2, 16], "dtype": "float32", "quantization": {"min": -0.7299658282166752, "scale": 2.068067621091524e-05, "dtype": "uint16"}}, {"name": "conv2d_14/bias", "shape": [16], "dtype": "float32", "quantization": {"min": -0.2648820337395542, "scale": 2.242292675353883e-05, "dtype": "uint16"}}, {"name": "conv2d_15/kernel", "shape": [5, 5, 16, 32], "dtype": "float32", "quantization": {"min": -1.3355234396651396, "scale": 3.1675998284358895e-05, "dtype": "uint16"}}, {"name": "conv2d_15/bias", "shape": [32], "dtype": "float32", "quantization": {"min": -0.5123218027031685, "scale": 9.94857569767498e-06, "dtype": "uint16"}}, {"name": "conv2d_16/kernel", "shape": [5, 5, 32, 64], "dtype": "float32", "quantization": {"min": -1.0795235360488198, "scale": 2.6283685626432116e-05, "dtype": "uint16"}}, {"name": "conv2d_16/bias", "shape": [64], "dtype": "float32", "quantization": {"min": -0.6332712483058635, "scale": 1.2173845100941262e-05, "dtype": "uint16"}}, {"name": "conv2d_17/kernel", "shape": [5, 5, 64, 128], "dtype": "float32", "quantization": {"min": -0.9421480950523753, "scale": 2.502053100656952e-05, "dtype": "uint16"}}, {"name": "conv2d_17/bias", "shape": [128], "dtype": "float32", "quantization": {"min": -0.4735065812294039, "scale": 1.1940050463459262e-05, "dtype": "uint16"}}, {"name": "conv2d_18/kernel", "shape": [5, 5, 128, 256], "dtype": "float32", "quantization": {"min": -0.8314671184738869, "scale": 2.1400883312928212e-05, "dtype": "uint16"}}, {"name": "conv2d_18/bias", "shape": [256], "dtype": "float32", "quantization": {"min": -0.5829996287508943, "scale": 1.0901264561535046e-05, "dtype": "uint16"}}, {"name": "conv2d_19/kernel", "shape": [5, 5, 256, 512], "dtype": "float32", "quantization": {"min": -0.6929634370365086, "scale": 2.077726784110424e-05, "dtype": "uint16"}}, {"name": "conv2d_19/bias", "shape": [512], "dtype": "float32", "quantization": {"min": -0.7014996235982007, "scale": 1.957964786195715e-05, "dtype": "uint16"}}, {"name": "conv2d_2/kernel", "shape": [5, 5, 32, 64], "dtype": "float32", "quantization": {"min": -1.1282782055215304, "scale": 3.465760115255814e-05, "dtype": "uint16"}}, {"name": "conv2d_2/bias", "shape": [64], "dtype": "float32", "quantization": {"min": -0.5022775506576721, "scale": 1.2103073509823424e-05, "dtype": "uint16"}}, {"name": "conv2d_20/kernel", "shape": [4, 4, 1, 2], "dtype": "float32", "quantization": {"min": -1.7267788292175754, "scale": 2.6644531990148986e-05, "dtype": "uint16"}}, {"name": "conv2d_20/bias", "shape": [2], "dtype": "float32", "quantization": {"min": 1.067459225654602, "scale": 2.1187911874380103e-08, "dtype": "uint16"}}, {"name": "conv2d_21/kernel", "shape": [5, 5, 2, 16], "dtype": "float32", "quantization": {"min": -0.8560529807989645, "scale": 2.5773083871713518e-05, "dtype": "uint16"}}, {"name": "conv2d_21/bias", "shape": [16], "dtype": "float32", "quantization": {"min": -0.15136931510205182, "scale": 8.615214291522584e-06, "dtype": "uint16"}}, {"name": "conv2d_22/kernel", "shape": [5, 5, 16, 32], "dtype": "float32", "quantization": {"min": -1.0993646227777745, "scale": 3.329188488818892e-05, "dtype": "uint16"}}, {"name": "conv2d_22/bias", "shape": [32], "dtype": "float32", "quantization": {"min": -0.5132489238647463, "scale": 1.1138456213562496e-05, "dtype": "uint16"}}, {"name": "conv2d_23/kernel", "shape": [5, 5, 32, 64], "dtype": "float32", "quantization": {"min": -0.9093160923598532, "scale": 2.8266843618385815e-05, "dtype": "uint16"}}, {"name": "conv2d_23/bias", "shape": [64], "dtype": "float32", "quantization": {"min": -0.4020916328092203, "scale": 1.1589659099821879e-05, "dtype": "uint16"}}, {"name": "conv2d_24/kernel", "shape": [5, 5, 64, 128], "dtype": "float32", "quantization": {"min": -1.1811115623602761, "scale": 2.7538799280940946e-05, "dtype": "uint16"}}, {"name": "conv2d_24/bias", "shape": [128], "dtype": "float32", "quantization": {"min": -0.7020698256720719, "scale": 1.4181796296779556e-05, "dtype": "uint16"}}, {"name": "conv2d_25/kernel", "shape": [5, 5, 128, 256], "dtype": "float32", "quantization": {"min": -1.3771508285543996, "scale": 3.498147806732371e-05, "dtype": "uint16"}}, {"name": "conv2d_25/bias", "shape": [256], "dtype": "float32", "quantization": {"min": -0.5042905912065866, "scale": 1.2024956272661053e-05, "dtype": "uint16"}}, {"name": "conv2d_26/kernel", "shape": [5, 5, 256, 512], "dtype": "float32", "quantization": {"min": -0.8393992844749899, "scale": 2.366771794042153e-05, "dtype": "uint16"}}, {"name": "conv2d_26/bias", "shape": [512], "dtype": "float32", "quantization": {"min": -0.8798763010443107, "scale": 3.384269783623642e-05, "dtype": "uint16"}}, {"name": "conv2d_27/kernel", "shape": [4, 4, 1, 2], "dtype": "float32", "quantization": {"min": -1.7749948802853104, "scale": 2.712732119276975e-05, "dtype": "uint16"}}, {"name": "conv2d_27/bias", "shape": [2], "dtype": "float32", "quantization": {"min": 0.6696286201477051, "scale": 2.8236421465901004e-07, "dtype": "uint16"}}, {"name": "conv2d_3/kernel", "shape": [5, 5, 64, 128], "dtype": "float32", "quantization": {"min": -1.15507108237311, "scale": 2.988540963449185e-05, "dtype": "uint16"}}, {"name": "conv2d_3/bias", "shape": [128], "dtype": "float32", "quantization": {"min": -1.109372170845322, "scale": 2.318824820963425e-05, "dtype": "uint16"}}, {"name": "conv2d_4/kernel", "shape": [5, 5, 128, 256], "dtype": "float32", "quantization": {"min": -1.4865448597103794, "scale": 4.147841345211584e-05, "dtype": "uint16"}}, {"name": "conv2d_4/bias", "shape": [256], "dtype": "float32", "quantization": {"min": -0.41704961519597133, "scale": 9.850945181310737e-06, "dtype": "uint16"}}, {"name": "conv2d_5/kernel", "shape": [5, 5, 256, 512], "dtype": "float32", "quantization": {"min": -0.731805659066242, "scale": 2.3080255434643515e-05, "dtype": "uint16"}}, {"name": "conv2d_5/bias", "shape": [512], "dtype": "float32", "quantization": {"min": -1.323998944350272, "scale": 3.9398867559895015e-05, "dtype": "uint16"}}, {"name": "conv2d_6/kernel", "shape": [4, 4, 1, 2], "dtype": "float32", "quantization": {"min": -1.7651204300509298, "scale": 2.7405297945145477e-05, "dtype": "uint16"}}, {"name": "conv2d_6/bias", "shape": [2], "dtype": "float32", "quantization": {"min": 0.7887760400772095, "scale": 1.1410967494399686e-07, "dtype": "uint16"}}, {"name": "conv2d_7/kernel", "shape": [5, 5, 2, 16], "dtype": "float32", "quantization": {"min": -0.6611229725994362, "scale": 1.7831561457531454e-05, "dtype": "uint16"}}, {"name": "conv2d_7/bias", "shape": [16], "dtype": "float32", "quantization": {"min": -0.13159035071361125, "scale": 8.516072399275903e-06, "dtype": "uint16"}}, {"name": "conv2d_8/kernel", "shape": [5, 5, 16, 32], "dtype": "float32", "quantization": {"min": -0.8597510505097312, "scale": 2.7974849526884172e-05, "dtype": "uint16"}}, {"name": "conv2d_8/bias", "shape": [32], "dtype": "float32", "quantization": {"min": -0.3236879608224038, "scale": 7.635950951224435e-06, "dtype": "uint16"}}, {"name": "conv2d_9/kernel", "shape": [5, 5, 32, 64], "dtype": "float32", "quantization": {"min": -0.8510790735212591, "scale": 2.4352726150888724e-05, "dtype": "uint16"}}, {"name": "conv2d_9/bias", "shape": [64], "dtype": "float32", "quantization": {"min": -0.6555082450103477, "scale": 1.232876760913968e-05, "dtype": "uint16"}}, {"name": "conv2d_transpose/kernel", "shape": [5, 5, 256, 512], "dtype": "float32", "quantization": {"min": -0.9295860138175562, "scale": 2.7465977657484302e-05, "dtype": "uint16"}}, {"name": "conv2d_transpose/bias", "shape": [256], "dtype": "float32", "quantization": {"min": -0.715542645981285, "scale": 1.851099847319325e-05, "dtype": "uint16"}}, {"name": "conv2d_transpose_1/kernel", "shape": [5, 5, 128, 512], "dtype": "float32", "quantization": {"min": -2.4350663245183575, "scale": 0.00010472953096719959, "dtype": "uint16"}}, {"name": "conv2d_transpose_1/bias", "shape": [128], "dtype": "float32", "quantization": {"min": -0.5026152928943101, "scale": 2.2926392049186244e-05, "dtype": "uint16"}}, {"name": "conv2d_transpose_10/kernel", "shape": [5, 5, 16, 64], "dtype": "float32", "quantization": {"min": -1.8606412500977525, "scale": 6.246068179857506e-05, "dtype": "uint16"}}, {"name": "conv2d_transpose_10/bias", "shape": [16], "dtype": "float32", "quantization": {"min": -1.191080198846766, "scale": 3.376651921661184e-05, "dtype": "uint16"}}, {"name": "conv2d_transpose_11/kernel", "shape": [5, 5, 1, 32], "dtype": "float32", "quantization": {"min": -1.6603071056042036, "scale": 3.678943287401293e-05, "dtype": "uint16"}}, {"name": "conv2d_transpose_11/bias", "shape": [1], "dtype": "float32", "quantization": {"min": 0.8894199132919312, "scale": 1.0, "dtype": "uint16"}}, {"name": "conv2d_transpose_12/kernel", "shape": [5, 5, 256, 512], "dtype": "float32", "quantization": {"min": -1.165344813785537, "scale": 4.039743521979883e-05, "dtype": "uint16"}}, {"name": "conv2d_transpose_12/bias", "shape": [256], "dtype": "float32", "quantization": {"min": -0.7137703285220377, "scale": 1.7956034527987666e-05, "dtype": "uint16"}}, {"name": "conv2d_transpose_13/kernel", "shape": [5, 5, 128, 512], "dtype": "float32", "quantization": {"min": -1.7646701106256064, "scale": 6.491337541385347e-05, "dtype": "uint16"}}, {"name": "conv2d_transpose_13/bias", "shape": [128], "dtype": "float32", "quantization": {"min": -0.7875691494871134, "scale": 2.15542064502891e-05, "dtype": "uint16"}}, {"name": "conv2d_transpose_14/kernel", "shape": [5, 5, 64, 256], "dtype": "float32", "quantization": {"min": -1.5249663568847265, "scale": 4.815328418594608e-05, "dtype": "uint16"}}, {"name": "conv2d_transpose_14/bias", "shape": [64], "dtype": "float32", "quantization": {"min": -0.6297632496953783, "scale": 2.124134004639026e-05, "dtype": "uint16"}}, {"name": "conv2d_transpose_15/kernel", "shape": [5, 5, 32, 128], "dtype": "float32", "quantization": {"min": -1.399915120022661, "scale": 4.4735727479713064e-05, "dtype": "uint16"}}, {"name": "conv2d_transpose_15/bias", "shape": [32], "dtype": "float32", "quantization": {"min": -0.761476156743775, "scale": 3.844674122709154e-05, "dtype": "uint16"}}, {"name": "conv2d_transpose_16/kernel", "shape": [5, 5, 16, 64], "dtype": "float32", "quantization": {"min": -1.625066603329668, "scale": 6.245692007108913e-05, "dtype": "uint16"}}, {"name": "conv2d_transpose_16/bias", "shape": [16], "dtype": "float32", "quantization": {"min": -0.9367712817767251, "scale": 3.287147455178346e-05, "dtype": "uint16"}}, {"name": "conv2d_transpose_17/kernel", "shape": [5, 5, 1, 32], "dtype": "float32", "quantization": {"min": -1.6745766382041145, "scale": 3.280846061409679e-05, "dtype": "uint16"}}, {"name": "conv2d_transpose_17/bias", "shape": [1], "dtype": "float32", "quantization": {"min": 1.3798818588256836, "scale": 1.0, "dtype": "uint16"}}, {"name": "conv2d_transpose_18/kernel", "shape": [5, 5, 256, 512], "dtype": "float32", "quantization": {"min": -0.9133637629848983, "scale": 2.8511433213201133e-05, "dtype": "uint16"}}, {"name": "conv2d_transpose_18/bias", "shape": [256], "dtype": "float32", "quantization": {"min": -0.6910976600417776, "scale": 2.0107583940697634e-05, "dtype": "uint16"}}, {"name": "conv2d_transpose_19/kernel", "shape": [5, 5, 128, 512], "dtype": "float32", "quantization": {"min": -1.6573968195247644, "scale": 6.0473485588527174e-05, "dtype": "uint16"}}, {"name": "conv2d_transpose_19/bias", "shape": [128], "dtype": "float32", "quantization": {"min": -0.47168357450683573, "scale": 2.5025656542170827e-05, "dtype": "uint16"}}, {"name": "conv2d_transpose_2/kernel", "shape": [5, 5, 64, 256], "dtype": "float32", "quantization": {"min": -1.7791747962690885, "scale": 5.0321721808719554e-05, "dtype": "uint16"}}, {"name": "conv2d_transpose_2/bias", "shape": [64], "dtype": "float32", "quantization": {"min": -1.0301961938603807, "scale": 2.840510074612277e-05, "dtype": "uint16"}}, {"name": "conv2d_transpose_20/kernel", "shape": [5, 5, 64, 256], "dtype": "float32", "quantization": {"min": -3.0790622425086625, "scale": 0.00011453140315833441, "dtype": "uint16"}}, {"name": "conv2d_transpose_20/bias", "shape": [64], "dtype": "float32", "quantization": {"min": -0.9028782669644957, "scale": 2.5650679478521994e-05, "dtype": "uint16"}}, {"name": "conv2d_transpose_21/kernel", "shape": [5, 5, 32, 128], "dtype": "float32", "quantization": {"min": -1.6233258174905845, "scale": 5.009800998335292e-05, "dtype": "uint16"}}, {"name": "conv2d_transpose_21/bias", "shape": [32], "dtype": "float32", "quantization": {"min": -1.0602385555350864, "scale": 2.9802073182344455e-05, "dtype": "uint16"}}, {"name": "conv2d_transpose_22/kernel", "shape": [5, 5, 16, 64], "dtype": "float32", "quantization": {"min": -1.4770094913794956, "scale": 8.149017883473079e-05, "dtype": "uint16"}}, {"name": "conv2d_transpose_22/bias", "shape": [16], "dtype": "float32", "quantization": {"min": -0.5636798480732669, "scale": 1.7605642254841705e-05, "dtype": "uint16"}}, {"name": "conv2d_transpose_23/kernel", "shape": [5, 5, 1, 32], "dtype": "float32", "quantization": {"min": -1.3708336048198253, "scale": 3.323555265528355e-05, "dtype": "uint16"}}, {"name": "conv2d_transpose_23/bias", "shape": [1], "dtype": "float32", "quantization": {"min": 0.8861101865768433, "scale": 1.0, "dtype": "uint16"}}, {"name": "conv2d_transpose_3/kernel", "shape": [5, 5, 32, 128], "dtype": "float32", "quantization": {"min": -1.8933402561964974, "scale": 5.043930671594686e-05, "dtype": "uint16"}}, {"name": "conv2d_transpose_3/bias", "shape": [32], "dtype": "float32", "quantization": {"min": -0.7706838253952868, "scale": 2.638605263610267e-05, "dtype": "uint16"}}, {"name": "conv2d_transpose_4/kernel", "shape": [5, 5, 16, 64], "dtype": "float32", "quantization": {"min": -1.2547432737364288, "scale": 4.6442731381590436e-05, "dtype": "uint16"}}, {"name": "conv2d_transpose_4/bias", "shape": [16], "dtype": "float32", "quantization": {"min": -0.528308175013414, "scale": 1.760557767973254e-05, "dtype": "uint16"}}, {"name": "conv2d_transpose_5/kernel", "shape": [5, 5, 1, 32], "dtype": "float32", "quantization": {"min": -1.2119227465715945, "scale": 3.3793122342570184e-05, "dtype": "uint16"}}, {"name": "conv2d_transpose_5/bias", "shape": [1], "dtype": "float32", "quantization": {"min": 0.7263514995574951, "scale": 1.0, "dtype": "uint16"}}, {"name": "conv2d_transpose_6/kernel", "shape": [5, 5, 256, 512], "dtype": "float32", "quantization": {"min": -0.8729920363066043, "scale": 2.690185314186325e-05, "dtype": "uint16"}}, {"name": "conv2d_transpose_6/bias", "shape": [256], "dtype": "float32", "quantization": {"min": -0.9191839819079252, "scale": 2.420497648210468e-05, "dtype": "uint16"}}, {"name": "conv2d_transpose_7/kernel", "shape": [5, 5, 128, 512], "dtype": "float32", "quantization": {"min": -2.473724590217693, "scale": 8.98817160895899e-05, "dtype": "uint16"}}, {"name": "conv2d_transpose_7/bias", "shape": [128], "dtype": "float32", "quantization": {"min": -0.5193688208527338, "scale": 1.973060900553637e-05, "dtype": "uint16"}}, {"name": "conv2d_transpose_8/kernel", "shape": [5, 5, 64, 256], "dtype": "float32", "quantization": {"min": -1.851492887250144, "scale": 5.250525727391725e-05, "dtype": "uint16"}}, {"name": "conv2d_transpose_8/bias", "shape": [64], "dtype": "float32", "quantization": {"min": -0.6879323788190166, "scale": 2.518515024049118e-05, "dtype": "uint16"}}, {"name": "conv2d_transpose_9/kernel", "shape": [5, 5, 32, 128], "dtype": "float32", "quantization": {"min": -3.6597120341059908, "scale": 8.854427644696581e-05, "dtype": "uint16"}}, {"name": "conv2d_transpose_9/bias", "shape": [32], "dtype": "float32", "quantization": {"min": -1.2816200478831645, "scale": 4.256035758254457e-05, "dtype": "uint16"}}]}]}